<?xml version="1.0"?>
<net name="torch_jit" version="11">
	<layers>
		<layer id="0" name="images" type="Parameter" version="opset1">
			<data shape="1,640,640,3" element_type="u8" />
			<output>
				<port id="0" precision="U8" names="images">
					<dim>1</dim>
					<dim>640</dim>
					<dim>640</dim>
					<dim>3</dim>
					<rt_info>
						<attribute name="layout" version="0" layout="[N,H,W,C]" />
					</rt_info>
				</port>
			</output>
		</layer>
		<layer id="1" name="/model.22/Constant_9" type="Const" version="opset1">
			<data element_type="f32" shape="1, 2, 8400" offset="0" size="67200" />
			<output>
				<port id="0" precision="FP32" names="/model.22/Constant_9_output_0">
					<dim>1</dim>
					<dim>2</dim>
					<dim>8400</dim>
				</port>
			</output>
		</layer>
		<layer id="2" name="Convert_250980" type="Convert" version="opset1">
			<data destination_type="f32" />
			<input>
				<port id="0" precision="U8">
					<dim>1</dim>
					<dim>640</dim>
					<dim>640</dim>
					<dim>3</dim>
				</port>
			</input>
			<output>
				<port id="1" precision="FP32">
					<dim>1</dim>
					<dim>640</dim>
					<dim>640</dim>
					<dim>3</dim>
				</port>
			</output>
		</layer>
		<layer id="3" name="Constant_250981" type="Const" version="opset1">
			<data element_type="i64" shape="4" offset="67200" size="32" />
			<output>
				<port id="0" precision="I64">
					<dim>4</dim>
				</port>
			</output>
		</layer>
		<layer id="4" name="Transpose_250982" type="Transpose" version="opset1">
			<input>
				<port id="0" precision="FP32">
					<dim>1</dim>
					<dim>640</dim>
					<dim>640</dim>
					<dim>3</dim>
				</port>
				<port id="1" precision="I64">
					<dim>4</dim>
				</port>
			</input>
			<output>
				<port id="2" precision="FP32">
					<dim>1</dim>
					<dim>3</dim>
					<dim>640</dim>
					<dim>640</dim>
				</port>
			</output>
		</layer>
		<layer id="5" name="Constant_250983" type="Const" version="opset1">
			<data element_type="f32" shape="1, 3, 1, 1" offset="67232" size="12" />
			<output>
				<port id="0" precision="FP32">
					<dim>1</dim>
					<dim>3</dim>
					<dim>1</dim>
					<dim>1</dim>
				</port>
			</output>
		</layer>
		<layer id="6" name="Divide_250984" type="Divide" version="opset1">
			<data auto_broadcast="numpy" m_pythondiv="true" />
			<rt_info>
				<attribute name="preprocessing" version="0" />
			</rt_info>
			<input>
				<port id="0" precision="FP32">
					<dim>1</dim>
					<dim>3</dim>
					<dim>640</dim>
					<dim>640</dim>
				</port>
				<port id="1" precision="FP32">
					<dim>1</dim>
					<dim>3</dim>
					<dim>1</dim>
					<dim>1</dim>
				</port>
			</input>
			<output>
				<port id="2" precision="FP32">
					<dim>1</dim>
					<dim>3</dim>
					<dim>640</dim>
					<dim>640</dim>
				</port>
			</output>
		</layer>
		<layer id="7" name="Constant_16178" type="Const" version="opset1">
			<data element_type="f32" shape="" offset="67244" size="4" />
			<output>
				<port id="0" precision="FP32" />
			</output>
		</layer>
		<layer id="8" name="Constant_16179" type="Const" version="opset1">
			<data element_type="f32" shape="" offset="67248" size="4" />
			<output>
				<port id="0" precision="FP32" />
			</output>
		</layer>
		<layer id="9" name="Constant_16180" type="Const" version="opset1">
			<data element_type="f32" shape="" offset="67244" size="4" />
			<output>
				<port id="0" precision="FP32" />
			</output>
		</layer>
		<layer id="10" name="Constant_16181" type="Const" version="opset1">
			<data element_type="f32" shape="" offset="67248" size="4" />
			<output>
				<port id="0" precision="FP32" />
			</output>
		</layer>
		<layer id="11" name="images/fq_output_0" type="FakeQuantize" version="opset1">
			<data levels="256" auto_broadcast="numpy" />
			<input>
				<port id="0" precision="FP32">
					<dim>1</dim>
					<dim>3</dim>
					<dim>640</dim>
					<dim>640</dim>
				</port>
				<port id="1" precision="FP32" />
				<port id="2" precision="FP32" />
				<port id="3" precision="FP32" />
				<port id="4" precision="FP32" />
			</input>
			<output>
				<port id="5" precision="FP32">
					<dim>1</dim>
					<dim>3</dim>
					<dim>640</dim>
					<dim>640</dim>
				</port>
			</output>
		</layer>
		<layer id="12" name="model.0.conv.weight" type="Const" version="opset1">
			<data element_type="i8" shape="16, 3, 3, 3" offset="67252" size="432" />
			<output>
				<port id="0" precision="I8">
					<dim>16</dim>
					<dim>3</dim>
					<dim>3</dim>
					<dim>3</dim>
				</port>
			</output>
		</layer>
		<layer id="13" name="Convert_240240" type="Convert" version="opset1">
			<data destination_type="f32" />
			<input>
				<port id="0" precision="I8">
					<dim>16</dim>
					<dim>3</dim>
					<dim>3</dim>
					<dim>3</dim>
				</port>
			</input>
			<output>
				<port id="1" precision="FP32">
					<dim>16</dim>
					<dim>3</dim>
					<dim>3</dim>
					<dim>3</dim>
				</port>
			</output>
		</layer>
		<layer id="14" name="Constant_240138" type="Const" version="opset1">
			<data element_type="f32" shape="16, 1, 1, 1" offset="67684" size="64" />
			<output>
				<port id="0" precision="FP32">
					<dim>16</dim>
					<dim>1</dim>
					<dim>1</dim>
					<dim>1</dim>
				</port>
			</output>
		</layer>
		<layer id="15" name="/model.0/conv/Conv/WithoutBiases/fq_weights_1" type="Multiply" version="opset1">
			<data auto_broadcast="numpy" />
			<input>
				<port id="0" precision="FP32">
					<dim>16</dim>
					<dim>3</dim>
					<dim>3</dim>
					<dim>3</dim>
				</port>
				<port id="1" precision="FP32">
					<dim>16</dim>
					<dim>1</dim>
					<dim>1</dim>
					<dim>1</dim>
				</port>
			</input>
			<output>
				<port id="2" precision="FP32">
					<dim>16</dim>
					<dim>3</dim>
					<dim>3</dim>
					<dim>3</dim>
				</port>
			</output>
		</layer>
		<layer id="16" name="/model.0/conv/Conv/WithoutBiases" type="Convolution" version="opset1">
			<data strides="2, 2" dilations="1, 1" pads_begin="1, 1" pads_end="1, 1" auto_pad="explicit" />
			<input>
				<port id="0" precision="FP32">
					<dim>1</dim>
					<dim>3</dim>
					<dim>640</dim>
					<dim>640</dim>
				</port>
				<port id="1" precision="FP32">
					<dim>16</dim>
					<dim>3</dim>
					<dim>3</dim>
					<dim>3</dim>
				</port>
			</input>
			<output>
				<port id="2" precision="FP32">
					<dim>1</dim>
					<dim>16</dim>
					<dim>320</dim>
					<dim>320</dim>
				</port>
			</output>
		</layer>
		<layer id="17" name="Reshape_140" type="Const" version="opset1">
			<data element_type="f32" shape="1, 16, 1, 1" offset="67748" size="64" />
			<output>
				<port id="0" precision="FP32">
					<dim>1</dim>
					<dim>16</dim>
					<dim>1</dim>
					<dim>1</dim>
				</port>
			</output>
		</layer>
		<layer id="18" name="/model.0/conv/Conv" type="Add" version="opset1">
			<data auto_broadcast="numpy" />
			<input>
				<port id="0" precision="FP32">
					<dim>1</dim>
					<dim>16</dim>
					<dim>320</dim>
					<dim>320</dim>
				</port>
				<port id="1" precision="FP32">
					<dim>1</dim>
					<dim>16</dim>
					<dim>1</dim>
					<dim>1</dim>
				</port>
			</input>
			<output>
				<port id="2" precision="FP32" names="/model.0/conv/Conv_output_0">
					<dim>1</dim>
					<dim>16</dim>
					<dim>320</dim>
					<dim>320</dim>
				</port>
			</output>
		</layer>
		<layer id="19" name="/model.0/act/Mul" type="Swish" version="opset4">
			<input>
				<port id="0" precision="FP32">
					<dim>1</dim>
					<dim>16</dim>
					<dim>320</dim>
					<dim>320</dim>
				</port>
			</input>
			<output>
				<port id="1" precision="FP32" names="/model.0/act/Mul_output_0">
					<dim>1</dim>
					<dim>16</dim>
					<dim>320</dim>
					<dim>320</dim>
				</port>
			</output>
		</layer>
		<layer id="20" name="Constant_16188" type="Const" version="opset1">
			<data element_type="f32" shape="" offset="67812" size="4" />
			<output>
				<port id="0" precision="FP32" />
			</output>
		</layer>
		<layer id="21" name="Constant_16189" type="Const" version="opset1">
			<data element_type="f32" shape="" offset="67816" size="4" />
			<output>
				<port id="0" precision="FP32" />
			</output>
		</layer>
		<layer id="22" name="Constant_16190" type="Const" version="opset1">
			<data element_type="f32" shape="" offset="67812" size="4" />
			<output>
				<port id="0" precision="FP32" />
			</output>
		</layer>
		<layer id="23" name="Constant_16191" type="Const" version="opset1">
			<data element_type="f32" shape="" offset="67816" size="4" />
			<output>
				<port id="0" precision="FP32" />
			</output>
		</layer>
		<layer id="24" name="/model.0/act/Mul/fq_output_0" type="FakeQuantize" version="opset1">
			<data levels="256" auto_broadcast="numpy" />
			<input>
				<port id="0" precision="FP32">
					<dim>1</dim>
					<dim>16</dim>
					<dim>320</dim>
					<dim>320</dim>
				</port>
				<port id="1" precision="FP32" />
				<port id="2" precision="FP32" />
				<port id="3" precision="FP32" />
				<port id="4" precision="FP32" />
			</input>
			<output>
				<port id="5" precision="FP32">
					<dim>1</dim>
					<dim>16</dim>
					<dim>320</dim>
					<dim>320</dim>
				</port>
			</output>
		</layer>
		<layer id="25" name="model.1.conv.weight" type="Const" version="opset1">
			<data element_type="i8" shape="32, 16, 3, 3" offset="67820" size="4608" />
			<output>
				<port id="0" precision="I8">
					<dim>32</dim>
					<dim>16</dim>
					<dim>3</dim>
					<dim>3</dim>
				</port>
			</output>
		</layer>
		<layer id="26" name="Convert_240394" type="Convert" version="opset1">
			<data destination_type="f32" />
			<input>
				<port id="0" precision="I8">
					<dim>32</dim>
					<dim>16</dim>
					<dim>3</dim>
					<dim>3</dim>
				</port>
			</input>
			<output>
				<port id="1" precision="FP32">
					<dim>32</dim>
					<dim>16</dim>
					<dim>3</dim>
					<dim>3</dim>
				</port>
			</output>
		</layer>
		<layer id="27" name="Constant_240292" type="Const" version="opset1">
			<data element_type="f32" shape="32, 1, 1, 1" offset="72428" size="128" />
			<output>
				<port id="0" precision="FP32">
					<dim>32</dim>
					<dim>1</dim>
					<dim>1</dim>
					<dim>1</dim>
				</port>
			</output>
		</layer>
		<layer id="28" name="/model.1/conv/Conv/WithoutBiases/fq_weights_1" type="Multiply" version="opset1">
			<data auto_broadcast="numpy" />
			<input>
				<port id="0" precision="FP32">
					<dim>32</dim>
					<dim>16</dim>
					<dim>3</dim>
					<dim>3</dim>
				</port>
				<port id="1" precision="FP32">
					<dim>32</dim>
					<dim>1</dim>
					<dim>1</dim>
					<dim>1</dim>
				</port>
			</input>
			<output>
				<port id="2" precision="FP32">
					<dim>32</dim>
					<dim>16</dim>
					<dim>3</dim>
					<dim>3</dim>
				</port>
			</output>
		</layer>
		<layer id="29" name="/model.1/conv/Conv/WithoutBiases" type="Convolution" version="opset1">
			<data strides="2, 2" dilations="1, 1" pads_begin="1, 1" pads_end="1, 1" auto_pad="explicit" />
			<input>
				<port id="0" precision="FP32">
					<dim>1</dim>
					<dim>16</dim>
					<dim>320</dim>
					<dim>320</dim>
				</port>
				<port id="1" precision="FP32">
					<dim>32</dim>
					<dim>16</dim>
					<dim>3</dim>
					<dim>3</dim>
				</port>
			</input>
			<output>
				<port id="2" precision="FP32">
					<dim>1</dim>
					<dim>32</dim>
					<dim>160</dim>
					<dim>160</dim>
				</port>
			</output>
		</layer>
		<layer id="30" name="Reshape_157" type="Const" version="opset1">
			<data element_type="f32" shape="1, 32, 1, 1" offset="72556" size="128" />
			<output>
				<port id="0" precision="FP32">
					<dim>1</dim>
					<dim>32</dim>
					<dim>1</dim>
					<dim>1</dim>
				</port>
			</output>
		</layer>
		<layer id="31" name="/model.1/conv/Conv" type="Add" version="opset1">
			<data auto_broadcast="numpy" />
			<input>
				<port id="0" precision="FP32">
					<dim>1</dim>
					<dim>32</dim>
					<dim>160</dim>
					<dim>160</dim>
				</port>
				<port id="1" precision="FP32">
					<dim>1</dim>
					<dim>32</dim>
					<dim>1</dim>
					<dim>1</dim>
				</port>
			</input>
			<output>
				<port id="2" precision="FP32" names="/model.1/conv/Conv_output_0">
					<dim>1</dim>
					<dim>32</dim>
					<dim>160</dim>
					<dim>160</dim>
				</port>
			</output>
		</layer>
		<layer id="32" name="/model.1/act/Mul" type="Swish" version="opset4">
			<input>
				<port id="0" precision="FP32">
					<dim>1</dim>
					<dim>32</dim>
					<dim>160</dim>
					<dim>160</dim>
				</port>
			</input>
			<output>
				<port id="1" precision="FP32" names="/model.1/act/Mul_output_0">
					<dim>1</dim>
					<dim>32</dim>
					<dim>160</dim>
					<dim>160</dim>
				</port>
			</output>
		</layer>
		<layer id="33" name="Constant_16198" type="Const" version="opset1">
			<data element_type="f32" shape="" offset="67812" size="4" />
			<output>
				<port id="0" precision="FP32" />
			</output>
		</layer>
		<layer id="34" name="Constant_16199" type="Const" version="opset1">
			<data element_type="f32" shape="" offset="67816" size="4" />
			<output>
				<port id="0" precision="FP32" />
			</output>
		</layer>
		<layer id="35" name="Constant_16200" type="Const" version="opset1">
			<data element_type="f32" shape="" offset="67812" size="4" />
			<output>
				<port id="0" precision="FP32" />
			</output>
		</layer>
		<layer id="36" name="Constant_16201" type="Const" version="opset1">
			<data element_type="f32" shape="" offset="67816" size="4" />
			<output>
				<port id="0" precision="FP32" />
			</output>
		</layer>
		<layer id="37" name="/model.1/act/Mul/fq_output_0" type="FakeQuantize" version="opset1">
			<data levels="256" auto_broadcast="numpy" />
			<input>
				<port id="0" precision="FP32">
					<dim>1</dim>
					<dim>32</dim>
					<dim>160</dim>
					<dim>160</dim>
				</port>
				<port id="1" precision="FP32" />
				<port id="2" precision="FP32" />
				<port id="3" precision="FP32" />
				<port id="4" precision="FP32" />
			</input>
			<output>
				<port id="5" precision="FP32">
					<dim>1</dim>
					<dim>32</dim>
					<dim>160</dim>
					<dim>160</dim>
				</port>
			</output>
		</layer>
		<layer id="38" name="model.2.cv1.conv.weight" type="Const" version="opset1">
			<data element_type="i8" shape="32, 32, 1, 1" offset="72684" size="1024" />
			<output>
				<port id="0" precision="I8">
					<dim>32</dim>
					<dim>32</dim>
					<dim>1</dim>
					<dim>1</dim>
				</port>
			</output>
		</layer>
		<layer id="39" name="Convert_240548" type="Convert" version="opset1">
			<data destination_type="f32" />
			<input>
				<port id="0" precision="I8">
					<dim>32</dim>
					<dim>32</dim>
					<dim>1</dim>
					<dim>1</dim>
				</port>
			</input>
			<output>
				<port id="1" precision="FP32">
					<dim>32</dim>
					<dim>32</dim>
					<dim>1</dim>
					<dim>1</dim>
				</port>
			</output>
		</layer>
		<layer id="40" name="Constant_240446" type="Const" version="opset1">
			<data element_type="f32" shape="32, 1, 1, 1" offset="73708" size="128" />
			<output>
				<port id="0" precision="FP32">
					<dim>32</dim>
					<dim>1</dim>
					<dim>1</dim>
					<dim>1</dim>
				</port>
			</output>
		</layer>
		<layer id="41" name="/model.2/cv1/conv/Conv/WithoutBiases/fq_weights_1" type="Multiply" version="opset1">
			<data auto_broadcast="numpy" />
			<input>
				<port id="0" precision="FP32">
					<dim>32</dim>
					<dim>32</dim>
					<dim>1</dim>
					<dim>1</dim>
				</port>
				<port id="1" precision="FP32">
					<dim>32</dim>
					<dim>1</dim>
					<dim>1</dim>
					<dim>1</dim>
				</port>
			</input>
			<output>
				<port id="2" precision="FP32">
					<dim>32</dim>
					<dim>32</dim>
					<dim>1</dim>
					<dim>1</dim>
				</port>
			</output>
		</layer>
		<layer id="42" name="/model.2/cv1/conv/Conv/WithoutBiases" type="Convolution" version="opset1">
			<data strides="1, 1" dilations="1, 1" pads_begin="0, 0" pads_end="0, 0" auto_pad="explicit" />
			<input>
				<port id="0" precision="FP32">
					<dim>1</dim>
					<dim>32</dim>
					<dim>160</dim>
					<dim>160</dim>
				</port>
				<port id="1" precision="FP32">
					<dim>32</dim>
					<dim>32</dim>
					<dim>1</dim>
					<dim>1</dim>
				</port>
			</input>
			<output>
				<port id="2" precision="FP32">
					<dim>1</dim>
					<dim>32</dim>
					<dim>160</dim>
					<dim>160</dim>
				</port>
			</output>
		</layer>
		<layer id="43" name="Reshape_174" type="Const" version="opset1">
			<data element_type="f32" shape="1, 32, 1, 1" offset="73836" size="128" />
			<output>
				<port id="0" precision="FP32">
					<dim>1</dim>
					<dim>32</dim>
					<dim>1</dim>
					<dim>1</dim>
				</port>
			</output>
		</layer>
		<layer id="44" name="/model.2/cv1/conv/Conv" type="Add" version="opset1">
			<data auto_broadcast="numpy" />
			<input>
				<port id="0" precision="FP32">
					<dim>1</dim>
					<dim>32</dim>
					<dim>160</dim>
					<dim>160</dim>
				</port>
				<port id="1" precision="FP32">
					<dim>1</dim>
					<dim>32</dim>
					<dim>1</dim>
					<dim>1</dim>
				</port>
			</input>
			<output>
				<port id="2" precision="FP32" names="/model.2/cv1/conv/Conv_output_0">
					<dim>1</dim>
					<dim>32</dim>
					<dim>160</dim>
					<dim>160</dim>
				</port>
			</output>
		</layer>
		<layer id="45" name="/model.2/cv1/act/Mul" type="Swish" version="opset4">
			<input>
				<port id="0" precision="FP32">
					<dim>1</dim>
					<dim>32</dim>
					<dim>160</dim>
					<dim>160</dim>
				</port>
			</input>
			<output>
				<port id="1" precision="FP32" names="/model.2/cv1/act/Mul_output_0">
					<dim>1</dim>
					<dim>32</dim>
					<dim>160</dim>
					<dim>160</dim>
				</port>
			</output>
		</layer>
		<layer id="46" name="Constant_16043" type="Const" version="opset1">
			<data element_type="f32" shape="" offset="73964" size="4" />
			<output>
				<port id="0" precision="FP32" />
			</output>
		</layer>
		<layer id="47" name="Constant_16044" type="Const" version="opset1">
			<data element_type="f32" shape="" offset="73968" size="4" />
			<output>
				<port id="0" precision="FP32" />
			</output>
		</layer>
		<layer id="48" name="Constant_16045" type="Const" version="opset1">
			<data element_type="f32" shape="" offset="73964" size="4" />
			<output>
				<port id="0" precision="FP32" />
			</output>
		</layer>
		<layer id="49" name="Constant_16046" type="Const" version="opset1">
			<data element_type="f32" shape="" offset="73968" size="4" />
			<output>
				<port id="0" precision="FP32" />
			</output>
		</layer>
		<layer id="50" name="/model.2/cv1/act/Mul/fq_output_0" type="FakeQuantize" version="opset1">
			<data levels="256" auto_broadcast="numpy" />
			<input>
				<port id="0" precision="FP32">
					<dim>1</dim>
					<dim>32</dim>
					<dim>160</dim>
					<dim>160</dim>
				</port>
				<port id="1" precision="FP32" />
				<port id="2" precision="FP32" />
				<port id="3" precision="FP32" />
				<port id="4" precision="FP32" />
			</input>
			<output>
				<port id="5" precision="FP32">
					<dim>1</dim>
					<dim>32</dim>
					<dim>160</dim>
					<dim>160</dim>
				</port>
			</output>
		</layer>
		<layer id="51" name="Constant_181" type="Const" version="opset1">
			<data element_type="i64" shape="" offset="73972" size="8" />
			<output>
				<port id="0" precision="I64" />
			</output>
		</layer>
		<layer id="52" name="Constant_9" type="Const" version="opset1">
			<data element_type="i64" shape="2" offset="73980" size="16" />
			<output>
				<port id="0" precision="I64" names="onnx::Split_137">
					<dim>2</dim>
				</port>
			</output>
		</layer>
		<layer id="53" name="/model.2/Split" type="VariadicSplit" version="opset1">
			<input>
				<port id="0" precision="FP32">
					<dim>1</dim>
					<dim>32</dim>
					<dim>160</dim>
					<dim>160</dim>
				</port>
				<port id="1" precision="I64" />
				<port id="2" precision="I64">
					<dim>2</dim>
				</port>
			</input>
			<output>
				<port id="3" precision="FP32" names="/model.2/Split_output_0">
					<dim>1</dim>
					<dim>16</dim>
					<dim>160</dim>
					<dim>160</dim>
				</port>
				<port id="4" precision="FP32" names="/model.2/Split_output_1">
					<dim>1</dim>
					<dim>16</dim>
					<dim>160</dim>
					<dim>160</dim>
				</port>
			</output>
		</layer>
		<layer id="54" name="model.2.m.0.cv1.conv.weight" type="Const" version="opset1">
			<data element_type="i8" shape="16, 16, 3, 3" offset="73996" size="2304" />
			<output>
				<port id="0" precision="I8">
					<dim>16</dim>
					<dim>16</dim>
					<dim>3</dim>
					<dim>3</dim>
				</port>
			</output>
		</layer>
		<layer id="55" name="Convert_240702" type="Convert" version="opset1">
			<data destination_type="f32" />
			<input>
				<port id="0" precision="I8">
					<dim>16</dim>
					<dim>16</dim>
					<dim>3</dim>
					<dim>3</dim>
				</port>
			</input>
			<output>
				<port id="1" precision="FP32">
					<dim>16</dim>
					<dim>16</dim>
					<dim>3</dim>
					<dim>3</dim>
				</port>
			</output>
		</layer>
		<layer id="56" name="Constant_240600" type="Const" version="opset1">
			<data element_type="f32" shape="16, 1, 1, 1" offset="76300" size="64" />
			<output>
				<port id="0" precision="FP32">
					<dim>16</dim>
					<dim>1</dim>
					<dim>1</dim>
					<dim>1</dim>
				</port>
			</output>
		</layer>
		<layer id="57" name="/model.2/m.0/cv1/conv/Conv/WithoutBiases/fq_weights_1" type="Multiply" version="opset1">
			<data auto_broadcast="numpy" />
			<input>
				<port id="0" precision="FP32">
					<dim>16</dim>
					<dim>16</dim>
					<dim>3</dim>
					<dim>3</dim>
				</port>
				<port id="1" precision="FP32">
					<dim>16</dim>
					<dim>1</dim>
					<dim>1</dim>
					<dim>1</dim>
				</port>
			</input>
			<output>
				<port id="2" precision="FP32">
					<dim>16</dim>
					<dim>16</dim>
					<dim>3</dim>
					<dim>3</dim>
				</port>
			</output>
		</layer>
		<layer id="58" name="/model.2/m.0/cv1/conv/Conv/WithoutBiases" type="Convolution" version="opset1">
			<data strides="1, 1" dilations="1, 1" pads_begin="1, 1" pads_end="1, 1" auto_pad="explicit" />
			<input>
				<port id="0" precision="FP32">
					<dim>1</dim>
					<dim>16</dim>
					<dim>160</dim>
					<dim>160</dim>
				</port>
				<port id="1" precision="FP32">
					<dim>16</dim>
					<dim>16</dim>
					<dim>3</dim>
					<dim>3</dim>
				</port>
			</input>
			<output>
				<port id="2" precision="FP32">
					<dim>1</dim>
					<dim>16</dim>
					<dim>160</dim>
					<dim>160</dim>
				</port>
			</output>
		</layer>
		<layer id="59" name="Reshape_194" type="Const" version="opset1">
			<data element_type="f32" shape="1, 16, 1, 1" offset="76364" size="64" />
			<output>
				<port id="0" precision="FP32">
					<dim>1</dim>
					<dim>16</dim>
					<dim>1</dim>
					<dim>1</dim>
				</port>
			</output>
		</layer>
		<layer id="60" name="/model.2/m.0/cv1/conv/Conv" type="Add" version="opset1">
			<data auto_broadcast="numpy" />
			<input>
				<port id="0" precision="FP32">
					<dim>1</dim>
					<dim>16</dim>
					<dim>160</dim>
					<dim>160</dim>
				</port>
				<port id="1" precision="FP32">
					<dim>1</dim>
					<dim>16</dim>
					<dim>1</dim>
					<dim>1</dim>
				</port>
			</input>
			<output>
				<port id="2" precision="FP32" names="/model.2/m.0/cv1/conv/Conv_output_0">
					<dim>1</dim>
					<dim>16</dim>
					<dim>160</dim>
					<dim>160</dim>
				</port>
			</output>
		</layer>
		<layer id="61" name="/model.2/m.0/cv1/act/Mul" type="Swish" version="opset4">
			<input>
				<port id="0" precision="FP32">
					<dim>1</dim>
					<dim>16</dim>
					<dim>160</dim>
					<dim>160</dim>
				</port>
			</input>
			<output>
				<port id="1" precision="FP32" names="/model.2/m.0/cv1/act/Mul_output_0">
					<dim>1</dim>
					<dim>16</dim>
					<dim>160</dim>
					<dim>160</dim>
				</port>
			</output>
		</layer>
		<layer id="62" name="Constant_16213" type="Const" version="opset1">
			<data element_type="f32" shape="" offset="67812" size="4" />
			<output>
				<port id="0" precision="FP32" />
			</output>
		</layer>
		<layer id="63" name="Constant_16214" type="Const" version="opset1">
			<data element_type="f32" shape="" offset="67816" size="4" />
			<output>
				<port id="0" precision="FP32" />
			</output>
		</layer>
		<layer id="64" name="Constant_16215" type="Const" version="opset1">
			<data element_type="f32" shape="" offset="67812" size="4" />
			<output>
				<port id="0" precision="FP32" />
			</output>
		</layer>
		<layer id="65" name="Constant_16216" type="Const" version="opset1">
			<data element_type="f32" shape="" offset="67816" size="4" />
			<output>
				<port id="0" precision="FP32" />
			</output>
		</layer>
		<layer id="66" name="/model.2/m.0/cv1/act/Mul/fq_output_0" type="FakeQuantize" version="opset1">
			<data levels="256" auto_broadcast="numpy" />
			<input>
				<port id="0" precision="FP32">
					<dim>1</dim>
					<dim>16</dim>
					<dim>160</dim>
					<dim>160</dim>
				</port>
				<port id="1" precision="FP32" />
				<port id="2" precision="FP32" />
				<port id="3" precision="FP32" />
				<port id="4" precision="FP32" />
			</input>
			<output>
				<port id="5" precision="FP32">
					<dim>1</dim>
					<dim>16</dim>
					<dim>160</dim>
					<dim>160</dim>
				</port>
			</output>
		</layer>
		<layer id="67" name="model.2.m.0.cv2.conv.weight" type="Const" version="opset1">
			<data element_type="i8" shape="16, 16, 3, 3" offset="76428" size="2304" />
			<output>
				<port id="0" precision="I8">
					<dim>16</dim>
					<dim>16</dim>
					<dim>3</dim>
					<dim>3</dim>
				</port>
			</output>
		</layer>
		<layer id="68" name="Convert_240856" type="Convert" version="opset1">
			<data destination_type="f32" />
			<input>
				<port id="0" precision="I8">
					<dim>16</dim>
					<dim>16</dim>
					<dim>3</dim>
					<dim>3</dim>
				</port>
			</input>
			<output>
				<port id="1" precision="FP32">
					<dim>16</dim>
					<dim>16</dim>
					<dim>3</dim>
					<dim>3</dim>
				</port>
			</output>
		</layer>
		<layer id="69" name="Constant_240754" type="Const" version="opset1">
			<data element_type="f32" shape="16, 1, 1, 1" offset="78732" size="64" />
			<output>
				<port id="0" precision="FP32">
					<dim>16</dim>
					<dim>1</dim>
					<dim>1</dim>
					<dim>1</dim>
				</port>
			</output>
		</layer>
		<layer id="70" name="/model.2/m.0/cv2/conv/Conv/WithoutBiases/fq_weights_1" type="Multiply" version="opset1">
			<data auto_broadcast="numpy" />
			<input>
				<port id="0" precision="FP32">
					<dim>16</dim>
					<dim>16</dim>
					<dim>3</dim>
					<dim>3</dim>
				</port>
				<port id="1" precision="FP32">
					<dim>16</dim>
					<dim>1</dim>
					<dim>1</dim>
					<dim>1</dim>
				</port>
			</input>
			<output>
				<port id="2" precision="FP32">
					<dim>16</dim>
					<dim>16</dim>
					<dim>3</dim>
					<dim>3</dim>
				</port>
			</output>
		</layer>
		<layer id="71" name="/model.2/m.0/cv2/conv/Conv/WithoutBiases" type="Convolution" version="opset1">
			<data strides="1, 1" dilations="1, 1" pads_begin="1, 1" pads_end="1, 1" auto_pad="explicit" />
			<input>
				<port id="0" precision="FP32">
					<dim>1</dim>
					<dim>16</dim>
					<dim>160</dim>
					<dim>160</dim>
				</port>
				<port id="1" precision="FP32">
					<dim>16</dim>
					<dim>16</dim>
					<dim>3</dim>
					<dim>3</dim>
				</port>
			</input>
			<output>
				<port id="2" precision="FP32">
					<dim>1</dim>
					<dim>16</dim>
					<dim>160</dim>
					<dim>160</dim>
				</port>
			</output>
		</layer>
		<layer id="72" name="Reshape_211" type="Const" version="opset1">
			<data element_type="f32" shape="1, 16, 1, 1" offset="78796" size="64" />
			<output>
				<port id="0" precision="FP32">
					<dim>1</dim>
					<dim>16</dim>
					<dim>1</dim>
					<dim>1</dim>
				</port>
			</output>
		</layer>
		<layer id="73" name="/model.2/m.0/cv2/conv/Conv" type="Add" version="opset1">
			<data auto_broadcast="numpy" />
			<input>
				<port id="0" precision="FP32">
					<dim>1</dim>
					<dim>16</dim>
					<dim>160</dim>
					<dim>160</dim>
				</port>
				<port id="1" precision="FP32">
					<dim>1</dim>
					<dim>16</dim>
					<dim>1</dim>
					<dim>1</dim>
				</port>
			</input>
			<output>
				<port id="2" precision="FP32" names="/model.2/m.0/cv2/conv/Conv_output_0">
					<dim>1</dim>
					<dim>16</dim>
					<dim>160</dim>
					<dim>160</dim>
				</port>
			</output>
		</layer>
		<layer id="74" name="/model.2/m.0/cv2/act/Mul" type="Swish" version="opset4">
			<input>
				<port id="0" precision="FP32">
					<dim>1</dim>
					<dim>16</dim>
					<dim>160</dim>
					<dim>160</dim>
				</port>
			</input>
			<output>
				<port id="1" precision="FP32" names="/model.2/m.0/cv2/act/Mul_output_0">
					<dim>1</dim>
					<dim>16</dim>
					<dim>160</dim>
					<dim>160</dim>
				</port>
			</output>
		</layer>
		<layer id="75" name="Constant_16223" type="Const" version="opset1">
			<data element_type="f32" shape="" offset="78860" size="4" />
			<output>
				<port id="0" precision="FP32" />
			</output>
		</layer>
		<layer id="76" name="Constant_16224" type="Const" version="opset1">
			<data element_type="f32" shape="" offset="78864" size="4" />
			<output>
				<port id="0" precision="FP32" />
			</output>
		</layer>
		<layer id="77" name="Constant_16225" type="Const" version="opset1">
			<data element_type="f32" shape="" offset="78860" size="4" />
			<output>
				<port id="0" precision="FP32" />
			</output>
		</layer>
		<layer id="78" name="Constant_16226" type="Const" version="opset1">
			<data element_type="f32" shape="" offset="78864" size="4" />
			<output>
				<port id="0" precision="FP32" />
			</output>
		</layer>
		<layer id="79" name="/model.2/m.0/cv2/act/Mul/fq_output_0" type="FakeQuantize" version="opset1">
			<data levels="256" auto_broadcast="numpy" />
			<input>
				<port id="0" precision="FP32">
					<dim>1</dim>
					<dim>16</dim>
					<dim>160</dim>
					<dim>160</dim>
				</port>
				<port id="1" precision="FP32" />
				<port id="2" precision="FP32" />
				<port id="3" precision="FP32" />
				<port id="4" precision="FP32" />
			</input>
			<output>
				<port id="5" precision="FP32">
					<dim>1</dim>
					<dim>16</dim>
					<dim>160</dim>
					<dim>160</dim>
				</port>
			</output>
		</layer>
		<layer id="80" name="/model.2/m.0/Add" type="Add" version="opset1">
			<data auto_broadcast="numpy" />
			<input>
				<port id="0" precision="FP32">
					<dim>1</dim>
					<dim>16</dim>
					<dim>160</dim>
					<dim>160</dim>
				</port>
				<port id="1" precision="FP32">
					<dim>1</dim>
					<dim>16</dim>
					<dim>160</dim>
					<dim>160</dim>
				</port>
			</input>
			<output>
				<port id="2" precision="FP32" names="/model.2/m.0/Add_output_0">
					<dim>1</dim>
					<dim>16</dim>
					<dim>160</dim>
					<dim>160</dim>
				</port>
			</output>
		</layer>
		<layer id="81" name="Constant_16048" type="Const" version="opset1">
			<data element_type="f32" shape="" offset="73964" size="4" />
			<output>
				<port id="0" precision="FP32" />
			</output>
		</layer>
		<layer id="82" name="Constant_16049" type="Const" version="opset1">
			<data element_type="f32" shape="" offset="73968" size="4" />
			<output>
				<port id="0" precision="FP32" />
			</output>
		</layer>
		<layer id="83" name="Constant_16050" type="Const" version="opset1">
			<data element_type="f32" shape="" offset="73964" size="4" />
			<output>
				<port id="0" precision="FP32" />
			</output>
		</layer>
		<layer id="84" name="Constant_16051" type="Const" version="opset1">
			<data element_type="f32" shape="" offset="73968" size="4" />
			<output>
				<port id="0" precision="FP32" />
			</output>
		</layer>
		<layer id="85" name="/model.2/m.0/Add/fq_output_0" type="FakeQuantize" version="opset1">
			<data levels="256" auto_broadcast="numpy" />
			<input>
				<port id="0" precision="FP32">
					<dim>1</dim>
					<dim>16</dim>
					<dim>160</dim>
					<dim>160</dim>
				</port>
				<port id="1" precision="FP32" />
				<port id="2" precision="FP32" />
				<port id="3" precision="FP32" />
				<port id="4" precision="FP32" />
			</input>
			<output>
				<port id="5" precision="FP32">
					<dim>1</dim>
					<dim>16</dim>
					<dim>160</dim>
					<dim>160</dim>
				</port>
			</output>
		</layer>
		<layer id="86" name="/model.2/Concat" type="Concat" version="opset1">
			<data axis="1" />
			<input>
				<port id="0" precision="FP32">
					<dim>1</dim>
					<dim>16</dim>
					<dim>160</dim>
					<dim>160</dim>
				</port>
				<port id="1" precision="FP32">
					<dim>1</dim>
					<dim>16</dim>
					<dim>160</dim>
					<dim>160</dim>
				</port>
				<port id="2" precision="FP32">
					<dim>1</dim>
					<dim>16</dim>
					<dim>160</dim>
					<dim>160</dim>
				</port>
			</input>
			<output>
				<port id="3" precision="FP32" names="/model.2/Concat_output_0">
					<dim>1</dim>
					<dim>48</dim>
					<dim>160</dim>
					<dim>160</dim>
				</port>
			</output>
		</layer>
		<layer id="87" name="model.2.cv2.conv.weight" type="Const" version="opset1">
			<data element_type="i8" shape="32, 48, 1, 1" offset="78868" size="1536" />
			<output>
				<port id="0" precision="I8">
					<dim>32</dim>
					<dim>48</dim>
					<dim>1</dim>
					<dim>1</dim>
				</port>
			</output>
		</layer>
		<layer id="88" name="Convert_241010" type="Convert" version="opset1">
			<data destination_type="f32" />
			<input>
				<port id="0" precision="I8">
					<dim>32</dim>
					<dim>48</dim>
					<dim>1</dim>
					<dim>1</dim>
				</port>
			</input>
			<output>
				<port id="1" precision="FP32">
					<dim>32</dim>
					<dim>48</dim>
					<dim>1</dim>
					<dim>1</dim>
				</port>
			</output>
		</layer>
		<layer id="89" name="Constant_240908" type="Const" version="opset1">
			<data element_type="f32" shape="32, 1, 1, 1" offset="80404" size="128" />
			<output>
				<port id="0" precision="FP32">
					<dim>32</dim>
					<dim>1</dim>
					<dim>1</dim>
					<dim>1</dim>
				</port>
			</output>
		</layer>
		<layer id="90" name="/model.2/cv2/conv/Conv/WithoutBiases/fq_weights_1" type="Multiply" version="opset1">
			<data auto_broadcast="numpy" />
			<input>
				<port id="0" precision="FP32">
					<dim>32</dim>
					<dim>48</dim>
					<dim>1</dim>
					<dim>1</dim>
				</port>
				<port id="1" precision="FP32">
					<dim>32</dim>
					<dim>1</dim>
					<dim>1</dim>
					<dim>1</dim>
				</port>
			</input>
			<output>
				<port id="2" precision="FP32">
					<dim>32</dim>
					<dim>48</dim>
					<dim>1</dim>
					<dim>1</dim>
				</port>
			</output>
		</layer>
		<layer id="91" name="/model.2/cv2/conv/Conv/WithoutBiases" type="Convolution" version="opset1">
			<data strides="1, 1" dilations="1, 1" pads_begin="0, 0" pads_end="0, 0" auto_pad="explicit" />
			<input>
				<port id="0" precision="FP32">
					<dim>1</dim>
					<dim>48</dim>
					<dim>160</dim>
					<dim>160</dim>
				</port>
				<port id="1" precision="FP32">
					<dim>32</dim>
					<dim>48</dim>
					<dim>1</dim>
					<dim>1</dim>
				</port>
			</input>
			<output>
				<port id="2" precision="FP32">
					<dim>1</dim>
					<dim>32</dim>
					<dim>160</dim>
					<dim>160</dim>
				</port>
			</output>
		</layer>
		<layer id="92" name="Reshape_230" type="Const" version="opset1">
			<data element_type="f32" shape="1, 32, 1, 1" offset="80532" size="128" />
			<output>
				<port id="0" precision="FP32">
					<dim>1</dim>
					<dim>32</dim>
					<dim>1</dim>
					<dim>1</dim>
				</port>
			</output>
		</layer>
		<layer id="93" name="/model.2/cv2/conv/Conv" type="Add" version="opset1">
			<data auto_broadcast="numpy" />
			<input>
				<port id="0" precision="FP32">
					<dim>1</dim>
					<dim>32</dim>
					<dim>160</dim>
					<dim>160</dim>
				</port>
				<port id="1" precision="FP32">
					<dim>1</dim>
					<dim>32</dim>
					<dim>1</dim>
					<dim>1</dim>
				</port>
			</input>
			<output>
				<port id="2" precision="FP32" names="/model.2/cv2/conv/Conv_output_0">
					<dim>1</dim>
					<dim>32</dim>
					<dim>160</dim>
					<dim>160</dim>
				</port>
			</output>
		</layer>
		<layer id="94" name="/model.2/cv2/act/Mul" type="Swish" version="opset4">
			<input>
				<port id="0" precision="FP32">
					<dim>1</dim>
					<dim>32</dim>
					<dim>160</dim>
					<dim>160</dim>
				</port>
			</input>
			<output>
				<port id="1" precision="FP32" names="/model.2/cv2/act/Mul_output_0">
					<dim>1</dim>
					<dim>32</dim>
					<dim>160</dim>
					<dim>160</dim>
				</port>
			</output>
		</layer>
		<layer id="95" name="Constant_16233" type="Const" version="opset1">
			<data element_type="f32" shape="" offset="80660" size="4" />
			<output>
				<port id="0" precision="FP32" />
			</output>
		</layer>
		<layer id="96" name="Constant_16234" type="Const" version="opset1">
			<data element_type="f32" shape="" offset="80664" size="4" />
			<output>
				<port id="0" precision="FP32" />
			</output>
		</layer>
		<layer id="97" name="Constant_16235" type="Const" version="opset1">
			<data element_type="f32" shape="" offset="80660" size="4" />
			<output>
				<port id="0" precision="FP32" />
			</output>
		</layer>
		<layer id="98" name="Constant_16236" type="Const" version="opset1">
			<data element_type="f32" shape="" offset="80664" size="4" />
			<output>
				<port id="0" precision="FP32" />
			</output>
		</layer>
		<layer id="99" name="/model.2/cv2/act/Mul/fq_output_0" type="FakeQuantize" version="opset1">
			<data levels="256" auto_broadcast="numpy" />
			<input>
				<port id="0" precision="FP32">
					<dim>1</dim>
					<dim>32</dim>
					<dim>160</dim>
					<dim>160</dim>
				</port>
				<port id="1" precision="FP32" />
				<port id="2" precision="FP32" />
				<port id="3" precision="FP32" />
				<port id="4" precision="FP32" />
			</input>
			<output>
				<port id="5" precision="FP32">
					<dim>1</dim>
					<dim>32</dim>
					<dim>160</dim>
					<dim>160</dim>
				</port>
			</output>
		</layer>
		<layer id="100" name="model.3.conv.weight" type="Const" version="opset1">
			<data element_type="i8" shape="64, 32, 3, 3" offset="80668" size="18432" />
			<output>
				<port id="0" precision="I8">
					<dim>64</dim>
					<dim>32</dim>
					<dim>3</dim>
					<dim>3</dim>
				</port>
			</output>
		</layer>
		<layer id="101" name="Convert_241164" type="Convert" version="opset1">
			<data destination_type="f32" />
			<input>
				<port id="0" precision="I8">
					<dim>64</dim>
					<dim>32</dim>
					<dim>3</dim>
					<dim>3</dim>
				</port>
			</input>
			<output>
				<port id="1" precision="FP32">
					<dim>64</dim>
					<dim>32</dim>
					<dim>3</dim>
					<dim>3</dim>
				</port>
			</output>
		</layer>
		<layer id="102" name="Constant_241062" type="Const" version="opset1">
			<data element_type="f32" shape="64, 1, 1, 1" offset="99100" size="256" />
			<output>
				<port id="0" precision="FP32">
					<dim>64</dim>
					<dim>1</dim>
					<dim>1</dim>
					<dim>1</dim>
				</port>
			</output>
		</layer>
		<layer id="103" name="/model.3/conv/Conv/WithoutBiases/fq_weights_1" type="Multiply" version="opset1">
			<data auto_broadcast="numpy" />
			<input>
				<port id="0" precision="FP32">
					<dim>64</dim>
					<dim>32</dim>
					<dim>3</dim>
					<dim>3</dim>
				</port>
				<port id="1" precision="FP32">
					<dim>64</dim>
					<dim>1</dim>
					<dim>1</dim>
					<dim>1</dim>
				</port>
			</input>
			<output>
				<port id="2" precision="FP32">
					<dim>64</dim>
					<dim>32</dim>
					<dim>3</dim>
					<dim>3</dim>
				</port>
			</output>
		</layer>
		<layer id="104" name="/model.3/conv/Conv/WithoutBiases" type="Convolution" version="opset1">
			<data strides="2, 2" dilations="1, 1" pads_begin="1, 1" pads_end="1, 1" auto_pad="explicit" />
			<input>
				<port id="0" precision="FP32">
					<dim>1</dim>
					<dim>32</dim>
					<dim>160</dim>
					<dim>160</dim>
				</port>
				<port id="1" precision="FP32">
					<dim>64</dim>
					<dim>32</dim>
					<dim>3</dim>
					<dim>3</dim>
				</port>
			</input>
			<output>
				<port id="2" precision="FP32">
					<dim>1</dim>
					<dim>64</dim>
					<dim>80</dim>
					<dim>80</dim>
				</port>
			</output>
		</layer>
		<layer id="105" name="Reshape_247" type="Const" version="opset1">
			<data element_type="f32" shape="1, 64, 1, 1" offset="99356" size="256" />
			<output>
				<port id="0" precision="FP32">
					<dim>1</dim>
					<dim>64</dim>
					<dim>1</dim>
					<dim>1</dim>
				</port>
			</output>
		</layer>
		<layer id="106" name="/model.3/conv/Conv" type="Add" version="opset1">
			<data auto_broadcast="numpy" />
			<input>
				<port id="0" precision="FP32">
					<dim>1</dim>
					<dim>64</dim>
					<dim>80</dim>
					<dim>80</dim>
				</port>
				<port id="1" precision="FP32">
					<dim>1</dim>
					<dim>64</dim>
					<dim>1</dim>
					<dim>1</dim>
				</port>
			</input>
			<output>
				<port id="2" precision="FP32" names="/model.3/conv/Conv_output_0">
					<dim>1</dim>
					<dim>64</dim>
					<dim>80</dim>
					<dim>80</dim>
				</port>
			</output>
		</layer>
		<layer id="107" name="/model.3/act/Mul" type="Swish" version="opset4">
			<input>
				<port id="0" precision="FP32">
					<dim>1</dim>
					<dim>64</dim>
					<dim>80</dim>
					<dim>80</dim>
				</port>
			</input>
			<output>
				<port id="1" precision="FP32" names="/model.3/act/Mul_output_0">
					<dim>1</dim>
					<dim>64</dim>
					<dim>80</dim>
					<dim>80</dim>
				</port>
			</output>
		</layer>
		<layer id="108" name="Constant_16243" type="Const" version="opset1">
			<data element_type="f32" shape="" offset="67812" size="4" />
			<output>
				<port id="0" precision="FP32" />
			</output>
		</layer>
		<layer id="109" name="Constant_16244" type="Const" version="opset1">
			<data element_type="f32" shape="" offset="99612" size="4" />
			<output>
				<port id="0" precision="FP32" />
			</output>
		</layer>
		<layer id="110" name="Constant_16245" type="Const" version="opset1">
			<data element_type="f32" shape="" offset="67812" size="4" />
			<output>
				<port id="0" precision="FP32" />
			</output>
		</layer>
		<layer id="111" name="Constant_16246" type="Const" version="opset1">
			<data element_type="f32" shape="" offset="99612" size="4" />
			<output>
				<port id="0" precision="FP32" />
			</output>
		</layer>
		<layer id="112" name="/model.3/act/Mul/fq_output_0" type="FakeQuantize" version="opset1">
			<data levels="256" auto_broadcast="numpy" />
			<input>
				<port id="0" precision="FP32">
					<dim>1</dim>
					<dim>64</dim>
					<dim>80</dim>
					<dim>80</dim>
				</port>
				<port id="1" precision="FP32" />
				<port id="2" precision="FP32" />
				<port id="3" precision="FP32" />
				<port id="4" precision="FP32" />
			</input>
			<output>
				<port id="5" precision="FP32">
					<dim>1</dim>
					<dim>64</dim>
					<dim>80</dim>
					<dim>80</dim>
				</port>
			</output>
		</layer>
		<layer id="113" name="model.4.cv1.conv.weight" type="Const" version="opset1">
			<data element_type="i8" shape="64, 64, 1, 1" offset="99616" size="4096" />
			<output>
				<port id="0" precision="I8">
					<dim>64</dim>
					<dim>64</dim>
					<dim>1</dim>
					<dim>1</dim>
				</port>
			</output>
		</layer>
		<layer id="114" name="Convert_241318" type="Convert" version="opset1">
			<data destination_type="f32" />
			<input>
				<port id="0" precision="I8">
					<dim>64</dim>
					<dim>64</dim>
					<dim>1</dim>
					<dim>1</dim>
				</port>
			</input>
			<output>
				<port id="1" precision="FP32">
					<dim>64</dim>
					<dim>64</dim>
					<dim>1</dim>
					<dim>1</dim>
				</port>
			</output>
		</layer>
		<layer id="115" name="Constant_241216" type="Const" version="opset1">
			<data element_type="f32" shape="64, 1, 1, 1" offset="103712" size="256" />
			<output>
				<port id="0" precision="FP32">
					<dim>64</dim>
					<dim>1</dim>
					<dim>1</dim>
					<dim>1</dim>
				</port>
			</output>
		</layer>
		<layer id="116" name="/model.4/cv1/conv/Conv/WithoutBiases/fq_weights_1" type="Multiply" version="opset1">
			<data auto_broadcast="numpy" />
			<input>
				<port id="0" precision="FP32">
					<dim>64</dim>
					<dim>64</dim>
					<dim>1</dim>
					<dim>1</dim>
				</port>
				<port id="1" precision="FP32">
					<dim>64</dim>
					<dim>1</dim>
					<dim>1</dim>
					<dim>1</dim>
				</port>
			</input>
			<output>
				<port id="2" precision="FP32">
					<dim>64</dim>
					<dim>64</dim>
					<dim>1</dim>
					<dim>1</dim>
				</port>
			</output>
		</layer>
		<layer id="117" name="/model.4/cv1/conv/Conv/WithoutBiases" type="Convolution" version="opset1">
			<data strides="1, 1" dilations="1, 1" pads_begin="0, 0" pads_end="0, 0" auto_pad="explicit" />
			<input>
				<port id="0" precision="FP32">
					<dim>1</dim>
					<dim>64</dim>
					<dim>80</dim>
					<dim>80</dim>
				</port>
				<port id="1" precision="FP32">
					<dim>64</dim>
					<dim>64</dim>
					<dim>1</dim>
					<dim>1</dim>
				</port>
			</input>
			<output>
				<port id="2" precision="FP32">
					<dim>1</dim>
					<dim>64</dim>
					<dim>80</dim>
					<dim>80</dim>
				</port>
			</output>
		</layer>
		<layer id="118" name="Reshape_264" type="Const" version="opset1">
			<data element_type="f32" shape="1, 64, 1, 1" offset="103968" size="256" />
			<output>
				<port id="0" precision="FP32">
					<dim>1</dim>
					<dim>64</dim>
					<dim>1</dim>
					<dim>1</dim>
				</port>
			</output>
		</layer>
		<layer id="119" name="/model.4/cv1/conv/Conv" type="Add" version="opset1">
			<data auto_broadcast="numpy" />
			<input>
				<port id="0" precision="FP32">
					<dim>1</dim>
					<dim>64</dim>
					<dim>80</dim>
					<dim>80</dim>
				</port>
				<port id="1" precision="FP32">
					<dim>1</dim>
					<dim>64</dim>
					<dim>1</dim>
					<dim>1</dim>
				</port>
			</input>
			<output>
				<port id="2" precision="FP32" names="/model.4/cv1/conv/Conv_output_0">
					<dim>1</dim>
					<dim>64</dim>
					<dim>80</dim>
					<dim>80</dim>
				</port>
			</output>
		</layer>
		<layer id="120" name="/model.4/cv1/act/Mul" type="Swish" version="opset4">
			<input>
				<port id="0" precision="FP32">
					<dim>1</dim>
					<dim>64</dim>
					<dim>80</dim>
					<dim>80</dim>
				</port>
			</input>
			<output>
				<port id="1" precision="FP32" names="/model.4/cv1/act/Mul_output_0">
					<dim>1</dim>
					<dim>64</dim>
					<dim>80</dim>
					<dim>80</dim>
				</port>
			</output>
		</layer>
		<layer id="121" name="Constant_16063" type="Const" version="opset1">
			<data element_type="f32" shape="" offset="104224" size="4" />
			<output>
				<port id="0" precision="FP32" />
			</output>
		</layer>
		<layer id="122" name="Constant_16064" type="Const" version="opset1">
			<data element_type="f32" shape="" offset="104228" size="4" />
			<output>
				<port id="0" precision="FP32" />
			</output>
		</layer>
		<layer id="123" name="Constant_16065" type="Const" version="opset1">
			<data element_type="f32" shape="" offset="104224" size="4" />
			<output>
				<port id="0" precision="FP32" />
			</output>
		</layer>
		<layer id="124" name="Constant_16066" type="Const" version="opset1">
			<data element_type="f32" shape="" offset="104228" size="4" />
			<output>
				<port id="0" precision="FP32" />
			</output>
		</layer>
		<layer id="125" name="/model.4/cv1/act/Mul/fq_output_0" type="FakeQuantize" version="opset1">
			<data levels="256" auto_broadcast="numpy" />
			<input>
				<port id="0" precision="FP32">
					<dim>1</dim>
					<dim>64</dim>
					<dim>80</dim>
					<dim>80</dim>
				</port>
				<port id="1" precision="FP32" />
				<port id="2" precision="FP32" />
				<port id="3" precision="FP32" />
				<port id="4" precision="FP32" />
			</input>
			<output>
				<port id="5" precision="FP32">
					<dim>1</dim>
					<dim>64</dim>
					<dim>80</dim>
					<dim>80</dim>
				</port>
			</output>
		</layer>
		<layer id="126" name="Constant_271" type="Const" version="opset1">
			<data element_type="i64" shape="" offset="73972" size="8" />
			<output>
				<port id="0" precision="I64" />
			</output>
		</layer>
		<layer id="127" name="Constant_28" type="Const" version="opset1">
			<data element_type="i64" shape="2" offset="104232" size="16" />
			<output>
				<port id="0" precision="I64" names="onnx::Split_157">
					<dim>2</dim>
				</port>
			</output>
		</layer>
		<layer id="128" name="/model.4/Split" type="VariadicSplit" version="opset1">
			<input>
				<port id="0" precision="FP32">
					<dim>1</dim>
					<dim>64</dim>
					<dim>80</dim>
					<dim>80</dim>
				</port>
				<port id="1" precision="I64" />
				<port id="2" precision="I64">
					<dim>2</dim>
				</port>
			</input>
			<output>
				<port id="3" precision="FP32" names="/model.4/Split_output_0">
					<dim>1</dim>
					<dim>32</dim>
					<dim>80</dim>
					<dim>80</dim>
				</port>
				<port id="4" precision="FP32" names="/model.4/Split_output_1">
					<dim>1</dim>
					<dim>32</dim>
					<dim>80</dim>
					<dim>80</dim>
				</port>
			</output>
		</layer>
		<layer id="129" name="model.4.m.0.cv1.conv.weight" type="Const" version="opset1">
			<data element_type="i8" shape="32, 32, 3, 3" offset="104248" size="9216" />
			<output>
				<port id="0" precision="I8">
					<dim>32</dim>
					<dim>32</dim>
					<dim>3</dim>
					<dim>3</dim>
				</port>
			</output>
		</layer>
		<layer id="130" name="Convert_241472" type="Convert" version="opset1">
			<data destination_type="f32" />
			<input>
				<port id="0" precision="I8">
					<dim>32</dim>
					<dim>32</dim>
					<dim>3</dim>
					<dim>3</dim>
				</port>
			</input>
			<output>
				<port id="1" precision="FP32">
					<dim>32</dim>
					<dim>32</dim>
					<dim>3</dim>
					<dim>3</dim>
				</port>
			</output>
		</layer>
		<layer id="131" name="Constant_241370" type="Const" version="opset1">
			<data element_type="f32" shape="32, 1, 1, 1" offset="113464" size="128" />
			<output>
				<port id="0" precision="FP32">
					<dim>32</dim>
					<dim>1</dim>
					<dim>1</dim>
					<dim>1</dim>
				</port>
			</output>
		</layer>
		<layer id="132" name="/model.4/m.0/cv1/conv/Conv/WithoutBiases/fq_weights_1" type="Multiply" version="opset1">
			<data auto_broadcast="numpy" />
			<input>
				<port id="0" precision="FP32">
					<dim>32</dim>
					<dim>32</dim>
					<dim>3</dim>
					<dim>3</dim>
				</port>
				<port id="1" precision="FP32">
					<dim>32</dim>
					<dim>1</dim>
					<dim>1</dim>
					<dim>1</dim>
				</port>
			</input>
			<output>
				<port id="2" precision="FP32">
					<dim>32</dim>
					<dim>32</dim>
					<dim>3</dim>
					<dim>3</dim>
				</port>
			</output>
		</layer>
		<layer id="133" name="/model.4/m.0/cv1/conv/Conv/WithoutBiases" type="Convolution" version="opset1">
			<data strides="1, 1" dilations="1, 1" pads_begin="1, 1" pads_end="1, 1" auto_pad="explicit" />
			<input>
				<port id="0" precision="FP32">
					<dim>1</dim>
					<dim>32</dim>
					<dim>80</dim>
					<dim>80</dim>
				</port>
				<port id="1" precision="FP32">
					<dim>32</dim>
					<dim>32</dim>
					<dim>3</dim>
					<dim>3</dim>
				</port>
			</input>
			<output>
				<port id="2" precision="FP32">
					<dim>1</dim>
					<dim>32</dim>
					<dim>80</dim>
					<dim>80</dim>
				</port>
			</output>
		</layer>
		<layer id="134" name="Reshape_284" type="Const" version="opset1">
			<data element_type="f32" shape="1, 32, 1, 1" offset="113592" size="128" />
			<output>
				<port id="0" precision="FP32">
					<dim>1</dim>
					<dim>32</dim>
					<dim>1</dim>
					<dim>1</dim>
				</port>
			</output>
		</layer>
		<layer id="135" name="/model.4/m.0/cv1/conv/Conv" type="Add" version="opset1">
			<data auto_broadcast="numpy" />
			<input>
				<port id="0" precision="FP32">
					<dim>1</dim>
					<dim>32</dim>
					<dim>80</dim>
					<dim>80</dim>
				</port>
				<port id="1" precision="FP32">
					<dim>1</dim>
					<dim>32</dim>
					<dim>1</dim>
					<dim>1</dim>
				</port>
			</input>
			<output>
				<port id="2" precision="FP32" names="/model.4/m.0/cv1/conv/Conv_output_0">
					<dim>1</dim>
					<dim>32</dim>
					<dim>80</dim>
					<dim>80</dim>
				</port>
			</output>
		</layer>
		<layer id="136" name="/model.4/m.0/cv1/act/Mul" type="Swish" version="opset4">
			<input>
				<port id="0" precision="FP32">
					<dim>1</dim>
					<dim>32</dim>
					<dim>80</dim>
					<dim>80</dim>
				</port>
			</input>
			<output>
				<port id="1" precision="FP32" names="/model.4/m.0/cv1/act/Mul_output_0">
					<dim>1</dim>
					<dim>32</dim>
					<dim>80</dim>
					<dim>80</dim>
				</port>
			</output>
		</layer>
		<layer id="137" name="Constant_16258" type="Const" version="opset1">
			<data element_type="f32" shape="" offset="67812" size="4" />
			<output>
				<port id="0" precision="FP32" />
			</output>
		</layer>
		<layer id="138" name="Constant_16259" type="Const" version="opset1">
			<data element_type="f32" shape="" offset="113720" size="4" />
			<output>
				<port id="0" precision="FP32" />
			</output>
		</layer>
		<layer id="139" name="Constant_16260" type="Const" version="opset1">
			<data element_type="f32" shape="" offset="67812" size="4" />
			<output>
				<port id="0" precision="FP32" />
			</output>
		</layer>
		<layer id="140" name="Constant_16261" type="Const" version="opset1">
			<data element_type="f32" shape="" offset="113720" size="4" />
			<output>
				<port id="0" precision="FP32" />
			</output>
		</layer>
		<layer id="141" name="/model.4/m.0/cv1/act/Mul/fq_output_0" type="FakeQuantize" version="opset1">
			<data levels="256" auto_broadcast="numpy" />
			<input>
				<port id="0" precision="FP32">
					<dim>1</dim>
					<dim>32</dim>
					<dim>80</dim>
					<dim>80</dim>
				</port>
				<port id="1" precision="FP32" />
				<port id="2" precision="FP32" />
				<port id="3" precision="FP32" />
				<port id="4" precision="FP32" />
			</input>
			<output>
				<port id="5" precision="FP32">
					<dim>1</dim>
					<dim>32</dim>
					<dim>80</dim>
					<dim>80</dim>
				</port>
			</output>
		</layer>
		<layer id="142" name="model.4.m.0.cv2.conv.weight" type="Const" version="opset1">
			<data element_type="i8" shape="32, 32, 3, 3" offset="113724" size="9216" />
			<output>
				<port id="0" precision="I8">
					<dim>32</dim>
					<dim>32</dim>
					<dim>3</dim>
					<dim>3</dim>
				</port>
			</output>
		</layer>
		<layer id="143" name="Convert_241626" type="Convert" version="opset1">
			<data destination_type="f32" />
			<input>
				<port id="0" precision="I8">
					<dim>32</dim>
					<dim>32</dim>
					<dim>3</dim>
					<dim>3</dim>
				</port>
			</input>
			<output>
				<port id="1" precision="FP32">
					<dim>32</dim>
					<dim>32</dim>
					<dim>3</dim>
					<dim>3</dim>
				</port>
			</output>
		</layer>
		<layer id="144" name="Constant_241524" type="Const" version="opset1">
			<data element_type="f32" shape="32, 1, 1, 1" offset="122940" size="128" />
			<output>
				<port id="0" precision="FP32">
					<dim>32</dim>
					<dim>1</dim>
					<dim>1</dim>
					<dim>1</dim>
				</port>
			</output>
		</layer>
		<layer id="145" name="/model.4/m.0/cv2/conv/Conv/WithoutBiases/fq_weights_1" type="Multiply" version="opset1">
			<data auto_broadcast="numpy" />
			<input>
				<port id="0" precision="FP32">
					<dim>32</dim>
					<dim>32</dim>
					<dim>3</dim>
					<dim>3</dim>
				</port>
				<port id="1" precision="FP32">
					<dim>32</dim>
					<dim>1</dim>
					<dim>1</dim>
					<dim>1</dim>
				</port>
			</input>
			<output>
				<port id="2" precision="FP32">
					<dim>32</dim>
					<dim>32</dim>
					<dim>3</dim>
					<dim>3</dim>
				</port>
			</output>
		</layer>
		<layer id="146" name="/model.4/m.0/cv2/conv/Conv/WithoutBiases" type="Convolution" version="opset1">
			<data strides="1, 1" dilations="1, 1" pads_begin="1, 1" pads_end="1, 1" auto_pad="explicit" />
			<input>
				<port id="0" precision="FP32">
					<dim>1</dim>
					<dim>32</dim>
					<dim>80</dim>
					<dim>80</dim>
				</port>
				<port id="1" precision="FP32">
					<dim>32</dim>
					<dim>32</dim>
					<dim>3</dim>
					<dim>3</dim>
				</port>
			</input>
			<output>
				<port id="2" precision="FP32">
					<dim>1</dim>
					<dim>32</dim>
					<dim>80</dim>
					<dim>80</dim>
				</port>
			</output>
		</layer>
		<layer id="147" name="Reshape_301" type="Const" version="opset1">
			<data element_type="f32" shape="1, 32, 1, 1" offset="123068" size="128" />
			<output>
				<port id="0" precision="FP32">
					<dim>1</dim>
					<dim>32</dim>
					<dim>1</dim>
					<dim>1</dim>
				</port>
			</output>
		</layer>
		<layer id="148" name="/model.4/m.0/cv2/conv/Conv" type="Add" version="opset1">
			<data auto_broadcast="numpy" />
			<input>
				<port id="0" precision="FP32">
					<dim>1</dim>
					<dim>32</dim>
					<dim>80</dim>
					<dim>80</dim>
				</port>
				<port id="1" precision="FP32">
					<dim>1</dim>
					<dim>32</dim>
					<dim>1</dim>
					<dim>1</dim>
				</port>
			</input>
			<output>
				<port id="2" precision="FP32" names="/model.4/m.0/cv2/conv/Conv_output_0">
					<dim>1</dim>
					<dim>32</dim>
					<dim>80</dim>
					<dim>80</dim>
				</port>
			</output>
		</layer>
		<layer id="149" name="/model.4/m.0/cv2/act/Mul" type="Swish" version="opset4">
			<input>
				<port id="0" precision="FP32">
					<dim>1</dim>
					<dim>32</dim>
					<dim>80</dim>
					<dim>80</dim>
				</port>
			</input>
			<output>
				<port id="1" precision="FP32" names="/model.4/m.0/cv2/act/Mul_output_0">
					<dim>1</dim>
					<dim>32</dim>
					<dim>80</dim>
					<dim>80</dim>
				</port>
			</output>
		</layer>
		<layer id="150" name="Constant_16268" type="Const" version="opset1">
			<data element_type="f32" shape="" offset="67812" size="4" />
			<output>
				<port id="0" precision="FP32" />
			</output>
		</layer>
		<layer id="151" name="Constant_16269" type="Const" version="opset1">
			<data element_type="f32" shape="" offset="113720" size="4" />
			<output>
				<port id="0" precision="FP32" />
			</output>
		</layer>
		<layer id="152" name="Constant_16270" type="Const" version="opset1">
			<data element_type="f32" shape="" offset="67812" size="4" />
			<output>
				<port id="0" precision="FP32" />
			</output>
		</layer>
		<layer id="153" name="Constant_16271" type="Const" version="opset1">
			<data element_type="f32" shape="" offset="113720" size="4" />
			<output>
				<port id="0" precision="FP32" />
			</output>
		</layer>
		<layer id="154" name="/model.4/m.0/cv2/act/Mul/fq_output_0" type="FakeQuantize" version="opset1">
			<data levels="256" auto_broadcast="numpy" />
			<input>
				<port id="0" precision="FP32">
					<dim>1</dim>
					<dim>32</dim>
					<dim>80</dim>
					<dim>80</dim>
				</port>
				<port id="1" precision="FP32" />
				<port id="2" precision="FP32" />
				<port id="3" precision="FP32" />
				<port id="4" precision="FP32" />
			</input>
			<output>
				<port id="5" precision="FP32">
					<dim>1</dim>
					<dim>32</dim>
					<dim>80</dim>
					<dim>80</dim>
				</port>
			</output>
		</layer>
		<layer id="155" name="/model.4/m.0/Add" type="Add" version="opset1">
			<data auto_broadcast="numpy" />
			<input>
				<port id="0" precision="FP32">
					<dim>1</dim>
					<dim>32</dim>
					<dim>80</dim>
					<dim>80</dim>
				</port>
				<port id="1" precision="FP32">
					<dim>1</dim>
					<dim>32</dim>
					<dim>80</dim>
					<dim>80</dim>
				</port>
			</input>
			<output>
				<port id="2" precision="FP32" names="/model.4/m.0/Add_output_0">
					<dim>1</dim>
					<dim>32</dim>
					<dim>80</dim>
					<dim>80</dim>
				</port>
			</output>
		</layer>
		<layer id="156" name="Constant_16058" type="Const" version="opset1">
			<data element_type="f32" shape="" offset="104224" size="4" />
			<output>
				<port id="0" precision="FP32" />
			</output>
		</layer>
		<layer id="157" name="Constant_16059" type="Const" version="opset1">
			<data element_type="f32" shape="" offset="104228" size="4" />
			<output>
				<port id="0" precision="FP32" />
			</output>
		</layer>
		<layer id="158" name="Constant_16060" type="Const" version="opset1">
			<data element_type="f32" shape="" offset="104224" size="4" />
			<output>
				<port id="0" precision="FP32" />
			</output>
		</layer>
		<layer id="159" name="Constant_16061" type="Const" version="opset1">
			<data element_type="f32" shape="" offset="104228" size="4" />
			<output>
				<port id="0" precision="FP32" />
			</output>
		</layer>
		<layer id="160" name="/model.4/m.0/Add/fq_output_0" type="FakeQuantize" version="opset1">
			<data levels="256" auto_broadcast="numpy" />
			<input>
				<port id="0" precision="FP32">
					<dim>1</dim>
					<dim>32</dim>
					<dim>80</dim>
					<dim>80</dim>
				</port>
				<port id="1" precision="FP32" />
				<port id="2" precision="FP32" />
				<port id="3" precision="FP32" />
				<port id="4" precision="FP32" />
			</input>
			<output>
				<port id="5" precision="FP32">
					<dim>1</dim>
					<dim>32</dim>
					<dim>80</dim>
					<dim>80</dim>
				</port>
			</output>
		</layer>
		<layer id="161" name="model.4.m.1.cv1.conv.weight" type="Const" version="opset1">
			<data element_type="i8" shape="32, 32, 3, 3" offset="123196" size="9216" />
			<output>
				<port id="0" precision="I8">
					<dim>32</dim>
					<dim>32</dim>
					<dim>3</dim>
					<dim>3</dim>
				</port>
			</output>
		</layer>
		<layer id="162" name="Convert_241780" type="Convert" version="opset1">
			<data destination_type="f32" />
			<input>
				<port id="0" precision="I8">
					<dim>32</dim>
					<dim>32</dim>
					<dim>3</dim>
					<dim>3</dim>
				</port>
			</input>
			<output>
				<port id="1" precision="FP32">
					<dim>32</dim>
					<dim>32</dim>
					<dim>3</dim>
					<dim>3</dim>
				</port>
			</output>
		</layer>
		<layer id="163" name="Constant_241678" type="Const" version="opset1">
			<data element_type="f32" shape="32, 1, 1, 1" offset="132412" size="128" />
			<output>
				<port id="0" precision="FP32">
					<dim>32</dim>
					<dim>1</dim>
					<dim>1</dim>
					<dim>1</dim>
				</port>
			</output>
		</layer>
		<layer id="164" name="/model.4/m.1/cv1/conv/Conv/WithoutBiases/fq_weights_1" type="Multiply" version="opset1">
			<data auto_broadcast="numpy" />
			<input>
				<port id="0" precision="FP32">
					<dim>32</dim>
					<dim>32</dim>
					<dim>3</dim>
					<dim>3</dim>
				</port>
				<port id="1" precision="FP32">
					<dim>32</dim>
					<dim>1</dim>
					<dim>1</dim>
					<dim>1</dim>
				</port>
			</input>
			<output>
				<port id="2" precision="FP32">
					<dim>32</dim>
					<dim>32</dim>
					<dim>3</dim>
					<dim>3</dim>
				</port>
			</output>
		</layer>
		<layer id="165" name="/model.4/m.1/cv1/conv/Conv/WithoutBiases" type="Convolution" version="opset1">
			<data strides="1, 1" dilations="1, 1" pads_begin="1, 1" pads_end="1, 1" auto_pad="explicit" />
			<input>
				<port id="0" precision="FP32">
					<dim>1</dim>
					<dim>32</dim>
					<dim>80</dim>
					<dim>80</dim>
				</port>
				<port id="1" precision="FP32">
					<dim>32</dim>
					<dim>32</dim>
					<dim>3</dim>
					<dim>3</dim>
				</port>
			</input>
			<output>
				<port id="2" precision="FP32">
					<dim>1</dim>
					<dim>32</dim>
					<dim>80</dim>
					<dim>80</dim>
				</port>
			</output>
		</layer>
		<layer id="166" name="Reshape_319" type="Const" version="opset1">
			<data element_type="f32" shape="1, 32, 1, 1" offset="132540" size="128" />
			<output>
				<port id="0" precision="FP32">
					<dim>1</dim>
					<dim>32</dim>
					<dim>1</dim>
					<dim>1</dim>
				</port>
			</output>
		</layer>
		<layer id="167" name="/model.4/m.1/cv1/conv/Conv" type="Add" version="opset1">
			<data auto_broadcast="numpy" />
			<input>
				<port id="0" precision="FP32">
					<dim>1</dim>
					<dim>32</dim>
					<dim>80</dim>
					<dim>80</dim>
				</port>
				<port id="1" precision="FP32">
					<dim>1</dim>
					<dim>32</dim>
					<dim>1</dim>
					<dim>1</dim>
				</port>
			</input>
			<output>
				<port id="2" precision="FP32" names="/model.4/m.1/cv1/conv/Conv_output_0">
					<dim>1</dim>
					<dim>32</dim>
					<dim>80</dim>
					<dim>80</dim>
				</port>
			</output>
		</layer>
		<layer id="168" name="/model.4/m.1/cv1/act/Mul" type="Swish" version="opset4">
			<input>
				<port id="0" precision="FP32">
					<dim>1</dim>
					<dim>32</dim>
					<dim>80</dim>
					<dim>80</dim>
				</port>
			</input>
			<output>
				<port id="1" precision="FP32" names="/model.4/m.1/cv1/act/Mul_output_0">
					<dim>1</dim>
					<dim>32</dim>
					<dim>80</dim>
					<dim>80</dim>
				</port>
			</output>
		</layer>
		<layer id="169" name="Constant_16278" type="Const" version="opset1">
			<data element_type="f32" shape="" offset="132668" size="4" />
			<output>
				<port id="0" precision="FP32" />
			</output>
		</layer>
		<layer id="170" name="Constant_16279" type="Const" version="opset1">
			<data element_type="f32" shape="" offset="132672" size="4" />
			<output>
				<port id="0" precision="FP32" />
			</output>
		</layer>
		<layer id="171" name="Constant_16280" type="Const" version="opset1">
			<data element_type="f32" shape="" offset="132668" size="4" />
			<output>
				<port id="0" precision="FP32" />
			</output>
		</layer>
		<layer id="172" name="Constant_16281" type="Const" version="opset1">
			<data element_type="f32" shape="" offset="132672" size="4" />
			<output>
				<port id="0" precision="FP32" />
			</output>
		</layer>
		<layer id="173" name="/model.4/m.1/cv1/act/Mul/fq_output_0" type="FakeQuantize" version="opset1">
			<data levels="256" auto_broadcast="numpy" />
			<input>
				<port id="0" precision="FP32">
					<dim>1</dim>
					<dim>32</dim>
					<dim>80</dim>
					<dim>80</dim>
				</port>
				<port id="1" precision="FP32" />
				<port id="2" precision="FP32" />
				<port id="3" precision="FP32" />
				<port id="4" precision="FP32" />
			</input>
			<output>
				<port id="5" precision="FP32">
					<dim>1</dim>
					<dim>32</dim>
					<dim>80</dim>
					<dim>80</dim>
				</port>
			</output>
		</layer>
		<layer id="174" name="model.4.m.1.cv2.conv.weight" type="Const" version="opset1">
			<data element_type="i8" shape="32, 32, 3, 3" offset="132676" size="9216" />
			<output>
				<port id="0" precision="I8">
					<dim>32</dim>
					<dim>32</dim>
					<dim>3</dim>
					<dim>3</dim>
				</port>
			</output>
		</layer>
		<layer id="175" name="Convert_241934" type="Convert" version="opset1">
			<data destination_type="f32" />
			<input>
				<port id="0" precision="I8">
					<dim>32</dim>
					<dim>32</dim>
					<dim>3</dim>
					<dim>3</dim>
				</port>
			</input>
			<output>
				<port id="1" precision="FP32">
					<dim>32</dim>
					<dim>32</dim>
					<dim>3</dim>
					<dim>3</dim>
				</port>
			</output>
		</layer>
		<layer id="176" name="Constant_241832" type="Const" version="opset1">
			<data element_type="f32" shape="32, 1, 1, 1" offset="141892" size="128" />
			<output>
				<port id="0" precision="FP32">
					<dim>32</dim>
					<dim>1</dim>
					<dim>1</dim>
					<dim>1</dim>
				</port>
			</output>
		</layer>
		<layer id="177" name="/model.4/m.1/cv2/conv/Conv/WithoutBiases/fq_weights_1" type="Multiply" version="opset1">
			<data auto_broadcast="numpy" />
			<input>
				<port id="0" precision="FP32">
					<dim>32</dim>
					<dim>32</dim>
					<dim>3</dim>
					<dim>3</dim>
				</port>
				<port id="1" precision="FP32">
					<dim>32</dim>
					<dim>1</dim>
					<dim>1</dim>
					<dim>1</dim>
				</port>
			</input>
			<output>
				<port id="2" precision="FP32">
					<dim>32</dim>
					<dim>32</dim>
					<dim>3</dim>
					<dim>3</dim>
				</port>
			</output>
		</layer>
		<layer id="178" name="/model.4/m.1/cv2/conv/Conv/WithoutBiases" type="Convolution" version="opset1">
			<data strides="1, 1" dilations="1, 1" pads_begin="1, 1" pads_end="1, 1" auto_pad="explicit" />
			<input>
				<port id="0" precision="FP32">
					<dim>1</dim>
					<dim>32</dim>
					<dim>80</dim>
					<dim>80</dim>
				</port>
				<port id="1" precision="FP32">
					<dim>32</dim>
					<dim>32</dim>
					<dim>3</dim>
					<dim>3</dim>
				</port>
			</input>
			<output>
				<port id="2" precision="FP32">
					<dim>1</dim>
					<dim>32</dim>
					<dim>80</dim>
					<dim>80</dim>
				</port>
			</output>
		</layer>
		<layer id="179" name="Reshape_336" type="Const" version="opset1">
			<data element_type="f32" shape="1, 32, 1, 1" offset="142020" size="128" />
			<output>
				<port id="0" precision="FP32">
					<dim>1</dim>
					<dim>32</dim>
					<dim>1</dim>
					<dim>1</dim>
				</port>
			</output>
		</layer>
		<layer id="180" name="/model.4/m.1/cv2/conv/Conv" type="Add" version="opset1">
			<data auto_broadcast="numpy" />
			<input>
				<port id="0" precision="FP32">
					<dim>1</dim>
					<dim>32</dim>
					<dim>80</dim>
					<dim>80</dim>
				</port>
				<port id="1" precision="FP32">
					<dim>1</dim>
					<dim>32</dim>
					<dim>1</dim>
					<dim>1</dim>
				</port>
			</input>
			<output>
				<port id="2" precision="FP32" names="/model.4/m.1/cv2/conv/Conv_output_0">
					<dim>1</dim>
					<dim>32</dim>
					<dim>80</dim>
					<dim>80</dim>
				</port>
			</output>
		</layer>
		<layer id="181" name="/model.4/m.1/cv2/act/Mul" type="Swish" version="opset4">
			<input>
				<port id="0" precision="FP32">
					<dim>1</dim>
					<dim>32</dim>
					<dim>80</dim>
					<dim>80</dim>
				</port>
			</input>
			<output>
				<port id="1" precision="FP32" names="/model.4/m.1/cv2/act/Mul_output_0">
					<dim>1</dim>
					<dim>32</dim>
					<dim>80</dim>
					<dim>80</dim>
				</port>
			</output>
		</layer>
		<layer id="182" name="Constant_16288" type="Const" version="opset1">
			<data element_type="f32" shape="" offset="142148" size="4" />
			<output>
				<port id="0" precision="FP32" />
			</output>
		</layer>
		<layer id="183" name="Constant_16289" type="Const" version="opset1">
			<data element_type="f32" shape="" offset="142152" size="4" />
			<output>
				<port id="0" precision="FP32" />
			</output>
		</layer>
		<layer id="184" name="Constant_16290" type="Const" version="opset1">
			<data element_type="f32" shape="" offset="142148" size="4" />
			<output>
				<port id="0" precision="FP32" />
			</output>
		</layer>
		<layer id="185" name="Constant_16291" type="Const" version="opset1">
			<data element_type="f32" shape="" offset="142152" size="4" />
			<output>
				<port id="0" precision="FP32" />
			</output>
		</layer>
		<layer id="186" name="/model.4/m.1/cv2/act/Mul/fq_output_0" type="FakeQuantize" version="opset1">
			<data levels="256" auto_broadcast="numpy" />
			<input>
				<port id="0" precision="FP32">
					<dim>1</dim>
					<dim>32</dim>
					<dim>80</dim>
					<dim>80</dim>
				</port>
				<port id="1" precision="FP32" />
				<port id="2" precision="FP32" />
				<port id="3" precision="FP32" />
				<port id="4" precision="FP32" />
			</input>
			<output>
				<port id="5" precision="FP32">
					<dim>1</dim>
					<dim>32</dim>
					<dim>80</dim>
					<dim>80</dim>
				</port>
			</output>
		</layer>
		<layer id="187" name="/model.4/m.1/Add" type="Add" version="opset1">
			<data auto_broadcast="numpy" />
			<input>
				<port id="0" precision="FP32">
					<dim>1</dim>
					<dim>32</dim>
					<dim>80</dim>
					<dim>80</dim>
				</port>
				<port id="1" precision="FP32">
					<dim>1</dim>
					<dim>32</dim>
					<dim>80</dim>
					<dim>80</dim>
				</port>
			</input>
			<output>
				<port id="2" precision="FP32" names="/model.4/m.1/Add_output_0">
					<dim>1</dim>
					<dim>32</dim>
					<dim>80</dim>
					<dim>80</dim>
				</port>
			</output>
		</layer>
		<layer id="188" name="Constant_16053" type="Const" version="opset1">
			<data element_type="f32" shape="" offset="104224" size="4" />
			<output>
				<port id="0" precision="FP32" />
			</output>
		</layer>
		<layer id="189" name="Constant_16054" type="Const" version="opset1">
			<data element_type="f32" shape="" offset="104228" size="4" />
			<output>
				<port id="0" precision="FP32" />
			</output>
		</layer>
		<layer id="190" name="Constant_16055" type="Const" version="opset1">
			<data element_type="f32" shape="" offset="104224" size="4" />
			<output>
				<port id="0" precision="FP32" />
			</output>
		</layer>
		<layer id="191" name="Constant_16056" type="Const" version="opset1">
			<data element_type="f32" shape="" offset="104228" size="4" />
			<output>
				<port id="0" precision="FP32" />
			</output>
		</layer>
		<layer id="192" name="/model.4/m.1/Add/fq_output_0" type="FakeQuantize" version="opset1">
			<data levels="256" auto_broadcast="numpy" />
			<input>
				<port id="0" precision="FP32">
					<dim>1</dim>
					<dim>32</dim>
					<dim>80</dim>
					<dim>80</dim>
				</port>
				<port id="1" precision="FP32" />
				<port id="2" precision="FP32" />
				<port id="3" precision="FP32" />
				<port id="4" precision="FP32" />
			</input>
			<output>
				<port id="5" precision="FP32">
					<dim>1</dim>
					<dim>32</dim>
					<dim>80</dim>
					<dim>80</dim>
				</port>
			</output>
		</layer>
		<layer id="193" name="/model.4/Concat" type="Concat" version="opset1">
			<data axis="1" />
			<input>
				<port id="0" precision="FP32">
					<dim>1</dim>
					<dim>32</dim>
					<dim>80</dim>
					<dim>80</dim>
				</port>
				<port id="1" precision="FP32">
					<dim>1</dim>
					<dim>32</dim>
					<dim>80</dim>
					<dim>80</dim>
				</port>
				<port id="2" precision="FP32">
					<dim>1</dim>
					<dim>32</dim>
					<dim>80</dim>
					<dim>80</dim>
				</port>
				<port id="3" precision="FP32">
					<dim>1</dim>
					<dim>32</dim>
					<dim>80</dim>
					<dim>80</dim>
				</port>
			</input>
			<output>
				<port id="4" precision="FP32" names="/model.4/Concat_output_0">
					<dim>1</dim>
					<dim>128</dim>
					<dim>80</dim>
					<dim>80</dim>
				</port>
			</output>
		</layer>
		<layer id="194" name="model.4.cv2.conv.weight" type="Const" version="opset1">
			<data element_type="i8" shape="64, 128, 1, 1" offset="142156" size="8192" />
			<output>
				<port id="0" precision="I8">
					<dim>64</dim>
					<dim>128</dim>
					<dim>1</dim>
					<dim>1</dim>
				</port>
			</output>
		</layer>
		<layer id="195" name="Convert_242088" type="Convert" version="opset1">
			<data destination_type="f32" />
			<input>
				<port id="0" precision="I8">
					<dim>64</dim>
					<dim>128</dim>
					<dim>1</dim>
					<dim>1</dim>
				</port>
			</input>
			<output>
				<port id="1" precision="FP32">
					<dim>64</dim>
					<dim>128</dim>
					<dim>1</dim>
					<dim>1</dim>
				</port>
			</output>
		</layer>
		<layer id="196" name="Constant_241986" type="Const" version="opset1">
			<data element_type="f32" shape="64, 1, 1, 1" offset="150348" size="256" />
			<output>
				<port id="0" precision="FP32">
					<dim>64</dim>
					<dim>1</dim>
					<dim>1</dim>
					<dim>1</dim>
				</port>
			</output>
		</layer>
		<layer id="197" name="/model.4/cv2/conv/Conv/WithoutBiases/fq_weights_1" type="Multiply" version="opset1">
			<data auto_broadcast="numpy" />
			<input>
				<port id="0" precision="FP32">
					<dim>64</dim>
					<dim>128</dim>
					<dim>1</dim>
					<dim>1</dim>
				</port>
				<port id="1" precision="FP32">
					<dim>64</dim>
					<dim>1</dim>
					<dim>1</dim>
					<dim>1</dim>
				</port>
			</input>
			<output>
				<port id="2" precision="FP32">
					<dim>64</dim>
					<dim>128</dim>
					<dim>1</dim>
					<dim>1</dim>
				</port>
			</output>
		</layer>
		<layer id="198" name="/model.4/cv2/conv/Conv/WithoutBiases" type="Convolution" version="opset1">
			<data strides="1, 1" dilations="1, 1" pads_begin="0, 0" pads_end="0, 0" auto_pad="explicit" />
			<input>
				<port id="0" precision="FP32">
					<dim>1</dim>
					<dim>128</dim>
					<dim>80</dim>
					<dim>80</dim>
				</port>
				<port id="1" precision="FP32">
					<dim>64</dim>
					<dim>128</dim>
					<dim>1</dim>
					<dim>1</dim>
				</port>
			</input>
			<output>
				<port id="2" precision="FP32">
					<dim>1</dim>
					<dim>64</dim>
					<dim>80</dim>
					<dim>80</dim>
				</port>
			</output>
		</layer>
		<layer id="199" name="Reshape_355" type="Const" version="opset1">
			<data element_type="f32" shape="1, 64, 1, 1" offset="150604" size="256" />
			<output>
				<port id="0" precision="FP32">
					<dim>1</dim>
					<dim>64</dim>
					<dim>1</dim>
					<dim>1</dim>
				</port>
			</output>
		</layer>
		<layer id="200" name="/model.4/cv2/conv/Conv" type="Add" version="opset1">
			<data auto_broadcast="numpy" />
			<input>
				<port id="0" precision="FP32">
					<dim>1</dim>
					<dim>64</dim>
					<dim>80</dim>
					<dim>80</dim>
				</port>
				<port id="1" precision="FP32">
					<dim>1</dim>
					<dim>64</dim>
					<dim>1</dim>
					<dim>1</dim>
				</port>
			</input>
			<output>
				<port id="2" precision="FP32" names="/model.4/cv2/conv/Conv_output_0">
					<dim>1</dim>
					<dim>64</dim>
					<dim>80</dim>
					<dim>80</dim>
				</port>
			</output>
		</layer>
		<layer id="201" name="/model.4/cv2/act/Mul" type="Swish" version="opset4">
			<input>
				<port id="0" precision="FP32">
					<dim>1</dim>
					<dim>64</dim>
					<dim>80</dim>
					<dim>80</dim>
				</port>
			</input>
			<output>
				<port id="1" precision="FP32" names="/model.4/cv2/act/Mul_output_0">
					<dim>1</dim>
					<dim>64</dim>
					<dim>80</dim>
					<dim>80</dim>
				</port>
			</output>
		</layer>
		<layer id="202" name="Constant_16068" type="Const" version="opset1">
			<data element_type="f32" shape="" offset="150860" size="4" />
			<output>
				<port id="0" precision="FP32" />
			</output>
		</layer>
		<layer id="203" name="Constant_16069" type="Const" version="opset1">
			<data element_type="f32" shape="" offset="150864" size="4" />
			<output>
				<port id="0" precision="FP32" />
			</output>
		</layer>
		<layer id="204" name="Constant_16070" type="Const" version="opset1">
			<data element_type="f32" shape="" offset="150860" size="4" />
			<output>
				<port id="0" precision="FP32" />
			</output>
		</layer>
		<layer id="205" name="Constant_16071" type="Const" version="opset1">
			<data element_type="f32" shape="" offset="150864" size="4" />
			<output>
				<port id="0" precision="FP32" />
			</output>
		</layer>
		<layer id="206" name="/model.4/cv2/act/Mul/fq_output_0" type="FakeQuantize" version="opset1">
			<data levels="256" auto_broadcast="numpy" />
			<input>
				<port id="0" precision="FP32">
					<dim>1</dim>
					<dim>64</dim>
					<dim>80</dim>
					<dim>80</dim>
				</port>
				<port id="1" precision="FP32" />
				<port id="2" precision="FP32" />
				<port id="3" precision="FP32" />
				<port id="4" precision="FP32" />
			</input>
			<output>
				<port id="5" precision="FP32">
					<dim>1</dim>
					<dim>64</dim>
					<dim>80</dim>
					<dim>80</dim>
				</port>
			</output>
		</layer>
		<layer id="207" name="model.5.conv.weight" type="Const" version="opset1">
			<data element_type="i8" shape="128, 64, 3, 3" offset="150868" size="73728" />
			<output>
				<port id="0" precision="I8">
					<dim>128</dim>
					<dim>64</dim>
					<dim>3</dim>
					<dim>3</dim>
				</port>
			</output>
		</layer>
		<layer id="208" name="Convert_242242" type="Convert" version="opset1">
			<data destination_type="f32" />
			<input>
				<port id="0" precision="I8">
					<dim>128</dim>
					<dim>64</dim>
					<dim>3</dim>
					<dim>3</dim>
				</port>
			</input>
			<output>
				<port id="1" precision="FP32">
					<dim>128</dim>
					<dim>64</dim>
					<dim>3</dim>
					<dim>3</dim>
				</port>
			</output>
		</layer>
		<layer id="209" name="Constant_242140" type="Const" version="opset1">
			<data element_type="f32" shape="128, 1, 1, 1" offset="224596" size="512" />
			<output>
				<port id="0" precision="FP32">
					<dim>128</dim>
					<dim>1</dim>
					<dim>1</dim>
					<dim>1</dim>
				</port>
			</output>
		</layer>
		<layer id="210" name="/model.5/conv/Conv/WithoutBiases/fq_weights_1" type="Multiply" version="opset1">
			<data auto_broadcast="numpy" />
			<input>
				<port id="0" precision="FP32">
					<dim>128</dim>
					<dim>64</dim>
					<dim>3</dim>
					<dim>3</dim>
				</port>
				<port id="1" precision="FP32">
					<dim>128</dim>
					<dim>1</dim>
					<dim>1</dim>
					<dim>1</dim>
				</port>
			</input>
			<output>
				<port id="2" precision="FP32">
					<dim>128</dim>
					<dim>64</dim>
					<dim>3</dim>
					<dim>3</dim>
				</port>
			</output>
		</layer>
		<layer id="211" name="/model.5/conv/Conv/WithoutBiases" type="Convolution" version="opset1">
			<data strides="2, 2" dilations="1, 1" pads_begin="1, 1" pads_end="1, 1" auto_pad="explicit" />
			<input>
				<port id="0" precision="FP32">
					<dim>1</dim>
					<dim>64</dim>
					<dim>80</dim>
					<dim>80</dim>
				</port>
				<port id="1" precision="FP32">
					<dim>128</dim>
					<dim>64</dim>
					<dim>3</dim>
					<dim>3</dim>
				</port>
			</input>
			<output>
				<port id="2" precision="FP32">
					<dim>1</dim>
					<dim>128</dim>
					<dim>40</dim>
					<dim>40</dim>
				</port>
			</output>
		</layer>
		<layer id="212" name="Reshape_372" type="Const" version="opset1">
			<data element_type="f32" shape="1, 128, 1, 1" offset="225108" size="512" />
			<output>
				<port id="0" precision="FP32">
					<dim>1</dim>
					<dim>128</dim>
					<dim>1</dim>
					<dim>1</dim>
				</port>
			</output>
		</layer>
		<layer id="213" name="/model.5/conv/Conv" type="Add" version="opset1">
			<data auto_broadcast="numpy" />
			<input>
				<port id="0" precision="FP32">
					<dim>1</dim>
					<dim>128</dim>
					<dim>40</dim>
					<dim>40</dim>
				</port>
				<port id="1" precision="FP32">
					<dim>1</dim>
					<dim>128</dim>
					<dim>1</dim>
					<dim>1</dim>
				</port>
			</input>
			<output>
				<port id="2" precision="FP32" names="/model.5/conv/Conv_output_0">
					<dim>1</dim>
					<dim>128</dim>
					<dim>40</dim>
					<dim>40</dim>
				</port>
			</output>
		</layer>
		<layer id="214" name="/model.5/act/Mul" type="Swish" version="opset4">
			<input>
				<port id="0" precision="FP32">
					<dim>1</dim>
					<dim>128</dim>
					<dim>40</dim>
					<dim>40</dim>
				</port>
			</input>
			<output>
				<port id="1" precision="FP32" names="/model.5/act/Mul_output_0">
					<dim>1</dim>
					<dim>128</dim>
					<dim>40</dim>
					<dim>40</dim>
				</port>
			</output>
		</layer>
		<layer id="215" name="Constant_16303" type="Const" version="opset1">
			<data element_type="f32" shape="" offset="225620" size="4" />
			<output>
				<port id="0" precision="FP32" />
			</output>
		</layer>
		<layer id="216" name="Constant_16304" type="Const" version="opset1">
			<data element_type="f32" shape="" offset="225624" size="4" />
			<output>
				<port id="0" precision="FP32" />
			</output>
		</layer>
		<layer id="217" name="Constant_16305" type="Const" version="opset1">
			<data element_type="f32" shape="" offset="225620" size="4" />
			<output>
				<port id="0" precision="FP32" />
			</output>
		</layer>
		<layer id="218" name="Constant_16306" type="Const" version="opset1">
			<data element_type="f32" shape="" offset="225624" size="4" />
			<output>
				<port id="0" precision="FP32" />
			</output>
		</layer>
		<layer id="219" name="/model.5/act/Mul/fq_output_0" type="FakeQuantize" version="opset1">
			<data levels="256" auto_broadcast="numpy" />
			<input>
				<port id="0" precision="FP32">
					<dim>1</dim>
					<dim>128</dim>
					<dim>40</dim>
					<dim>40</dim>
				</port>
				<port id="1" precision="FP32" />
				<port id="2" precision="FP32" />
				<port id="3" precision="FP32" />
				<port id="4" precision="FP32" />
			</input>
			<output>
				<port id="5" precision="FP32">
					<dim>1</dim>
					<dim>128</dim>
					<dim>40</dim>
					<dim>40</dim>
				</port>
			</output>
		</layer>
		<layer id="220" name="model.6.cv1.conv.weight" type="Const" version="opset1">
			<data element_type="i8" shape="128, 128, 1, 1" offset="225628" size="16384" />
			<output>
				<port id="0" precision="I8">
					<dim>128</dim>
					<dim>128</dim>
					<dim>1</dim>
					<dim>1</dim>
				</port>
			</output>
		</layer>
		<layer id="221" name="Convert_242396" type="Convert" version="opset1">
			<data destination_type="f32" />
			<input>
				<port id="0" precision="I8">
					<dim>128</dim>
					<dim>128</dim>
					<dim>1</dim>
					<dim>1</dim>
				</port>
			</input>
			<output>
				<port id="1" precision="FP32">
					<dim>128</dim>
					<dim>128</dim>
					<dim>1</dim>
					<dim>1</dim>
				</port>
			</output>
		</layer>
		<layer id="222" name="Constant_242294" type="Const" version="opset1">
			<data element_type="f32" shape="128, 1, 1, 1" offset="242012" size="512" />
			<output>
				<port id="0" precision="FP32">
					<dim>128</dim>
					<dim>1</dim>
					<dim>1</dim>
					<dim>1</dim>
				</port>
			</output>
		</layer>
		<layer id="223" name="/model.6/cv1/conv/Conv/WithoutBiases/fq_weights_1" type="Multiply" version="opset1">
			<data auto_broadcast="numpy" />
			<input>
				<port id="0" precision="FP32">
					<dim>128</dim>
					<dim>128</dim>
					<dim>1</dim>
					<dim>1</dim>
				</port>
				<port id="1" precision="FP32">
					<dim>128</dim>
					<dim>1</dim>
					<dim>1</dim>
					<dim>1</dim>
				</port>
			</input>
			<output>
				<port id="2" precision="FP32">
					<dim>128</dim>
					<dim>128</dim>
					<dim>1</dim>
					<dim>1</dim>
				</port>
			</output>
		</layer>
		<layer id="224" name="/model.6/cv1/conv/Conv/WithoutBiases" type="Convolution" version="opset1">
			<data strides="1, 1" dilations="1, 1" pads_begin="0, 0" pads_end="0, 0" auto_pad="explicit" />
			<input>
				<port id="0" precision="FP32">
					<dim>1</dim>
					<dim>128</dim>
					<dim>40</dim>
					<dim>40</dim>
				</port>
				<port id="1" precision="FP32">
					<dim>128</dim>
					<dim>128</dim>
					<dim>1</dim>
					<dim>1</dim>
				</port>
			</input>
			<output>
				<port id="2" precision="FP32">
					<dim>1</dim>
					<dim>128</dim>
					<dim>40</dim>
					<dim>40</dim>
				</port>
			</output>
		</layer>
		<layer id="225" name="Reshape_389" type="Const" version="opset1">
			<data element_type="f32" shape="1, 128, 1, 1" offset="242524" size="512" />
			<output>
				<port id="0" precision="FP32">
					<dim>1</dim>
					<dim>128</dim>
					<dim>1</dim>
					<dim>1</dim>
				</port>
			</output>
		</layer>
		<layer id="226" name="/model.6/cv1/conv/Conv" type="Add" version="opset1">
			<data auto_broadcast="numpy" />
			<input>
				<port id="0" precision="FP32">
					<dim>1</dim>
					<dim>128</dim>
					<dim>40</dim>
					<dim>40</dim>
				</port>
				<port id="1" precision="FP32">
					<dim>1</dim>
					<dim>128</dim>
					<dim>1</dim>
					<dim>1</dim>
				</port>
			</input>
			<output>
				<port id="2" precision="FP32" names="/model.6/cv1/conv/Conv_output_0">
					<dim>1</dim>
					<dim>128</dim>
					<dim>40</dim>
					<dim>40</dim>
				</port>
			</output>
		</layer>
		<layer id="227" name="/model.6/cv1/act/Mul" type="Swish" version="opset4">
			<input>
				<port id="0" precision="FP32">
					<dim>1</dim>
					<dim>128</dim>
					<dim>40</dim>
					<dim>40</dim>
				</port>
			</input>
			<output>
				<port id="1" precision="FP32" names="/model.6/cv1/act/Mul_output_0">
					<dim>1</dim>
					<dim>128</dim>
					<dim>40</dim>
					<dim>40</dim>
				</port>
			</output>
		</layer>
		<layer id="228" name="Constant_16083" type="Const" version="opset1">
			<data element_type="f32" shape="" offset="243036" size="4" />
			<output>
				<port id="0" precision="FP32" />
			</output>
		</layer>
		<layer id="229" name="Constant_16084" type="Const" version="opset1">
			<data element_type="f32" shape="" offset="243040" size="4" />
			<output>
				<port id="0" precision="FP32" />
			</output>
		</layer>
		<layer id="230" name="Constant_16085" type="Const" version="opset1">
			<data element_type="f32" shape="" offset="243036" size="4" />
			<output>
				<port id="0" precision="FP32" />
			</output>
		</layer>
		<layer id="231" name="Constant_16086" type="Const" version="opset1">
			<data element_type="f32" shape="" offset="243040" size="4" />
			<output>
				<port id="0" precision="FP32" />
			</output>
		</layer>
		<layer id="232" name="/model.6/cv1/act/Mul/fq_output_0" type="FakeQuantize" version="opset1">
			<data levels="256" auto_broadcast="numpy" />
			<input>
				<port id="0" precision="FP32">
					<dim>1</dim>
					<dim>128</dim>
					<dim>40</dim>
					<dim>40</dim>
				</port>
				<port id="1" precision="FP32" />
				<port id="2" precision="FP32" />
				<port id="3" precision="FP32" />
				<port id="4" precision="FP32" />
			</input>
			<output>
				<port id="5" precision="FP32">
					<dim>1</dim>
					<dim>128</dim>
					<dim>40</dim>
					<dim>40</dim>
				</port>
			</output>
		</layer>
		<layer id="233" name="Constant_396" type="Const" version="opset1">
			<data element_type="i64" shape="" offset="73972" size="8" />
			<output>
				<port id="0" precision="I64" />
			</output>
		</layer>
		<layer id="234" name="Constant_54" type="Const" version="opset1">
			<data element_type="i64" shape="2" offset="243044" size="16" />
			<output>
				<port id="0" precision="I64" names="onnx::Split_184">
					<dim>2</dim>
				</port>
			</output>
		</layer>
		<layer id="235" name="/model.6/Split" type="VariadicSplit" version="opset1">
			<input>
				<port id="0" precision="FP32">
					<dim>1</dim>
					<dim>128</dim>
					<dim>40</dim>
					<dim>40</dim>
				</port>
				<port id="1" precision="I64" />
				<port id="2" precision="I64">
					<dim>2</dim>
				</port>
			</input>
			<output>
				<port id="3" precision="FP32" names="/model.6/Split_output_0">
					<dim>1</dim>
					<dim>64</dim>
					<dim>40</dim>
					<dim>40</dim>
				</port>
				<port id="4" precision="FP32" names="/model.6/Split_output_1">
					<dim>1</dim>
					<dim>64</dim>
					<dim>40</dim>
					<dim>40</dim>
				</port>
			</output>
		</layer>
		<layer id="236" name="model.6.m.0.cv1.conv.weight" type="Const" version="opset1">
			<data element_type="i8" shape="64, 64, 3, 3" offset="243060" size="36864" />
			<output>
				<port id="0" precision="I8">
					<dim>64</dim>
					<dim>64</dim>
					<dim>3</dim>
					<dim>3</dim>
				</port>
			</output>
		</layer>
		<layer id="237" name="Convert_242550" type="Convert" version="opset1">
			<data destination_type="f32" />
			<input>
				<port id="0" precision="I8">
					<dim>64</dim>
					<dim>64</dim>
					<dim>3</dim>
					<dim>3</dim>
				</port>
			</input>
			<output>
				<port id="1" precision="FP32">
					<dim>64</dim>
					<dim>64</dim>
					<dim>3</dim>
					<dim>3</dim>
				</port>
			</output>
		</layer>
		<layer id="238" name="Constant_242448" type="Const" version="opset1">
			<data element_type="f32" shape="64, 1, 1, 1" offset="279924" size="256" />
			<output>
				<port id="0" precision="FP32">
					<dim>64</dim>
					<dim>1</dim>
					<dim>1</dim>
					<dim>1</dim>
				</port>
			</output>
		</layer>
		<layer id="239" name="/model.6/m.0/cv1/conv/Conv/WithoutBiases/fq_weights_1" type="Multiply" version="opset1">
			<data auto_broadcast="numpy" />
			<input>
				<port id="0" precision="FP32">
					<dim>64</dim>
					<dim>64</dim>
					<dim>3</dim>
					<dim>3</dim>
				</port>
				<port id="1" precision="FP32">
					<dim>64</dim>
					<dim>1</dim>
					<dim>1</dim>
					<dim>1</dim>
				</port>
			</input>
			<output>
				<port id="2" precision="FP32">
					<dim>64</dim>
					<dim>64</dim>
					<dim>3</dim>
					<dim>3</dim>
				</port>
			</output>
		</layer>
		<layer id="240" name="/model.6/m.0/cv1/conv/Conv/WithoutBiases" type="Convolution" version="opset1">
			<data strides="1, 1" dilations="1, 1" pads_begin="1, 1" pads_end="1, 1" auto_pad="explicit" />
			<input>
				<port id="0" precision="FP32">
					<dim>1</dim>
					<dim>64</dim>
					<dim>40</dim>
					<dim>40</dim>
				</port>
				<port id="1" precision="FP32">
					<dim>64</dim>
					<dim>64</dim>
					<dim>3</dim>
					<dim>3</dim>
				</port>
			</input>
			<output>
				<port id="2" precision="FP32">
					<dim>1</dim>
					<dim>64</dim>
					<dim>40</dim>
					<dim>40</dim>
				</port>
			</output>
		</layer>
		<layer id="241" name="Reshape_409" type="Const" version="opset1">
			<data element_type="f32" shape="1, 64, 1, 1" offset="280180" size="256" />
			<output>
				<port id="0" precision="FP32">
					<dim>1</dim>
					<dim>64</dim>
					<dim>1</dim>
					<dim>1</dim>
				</port>
			</output>
		</layer>
		<layer id="242" name="/model.6/m.0/cv1/conv/Conv" type="Add" version="opset1">
			<data auto_broadcast="numpy" />
			<input>
				<port id="0" precision="FP32">
					<dim>1</dim>
					<dim>64</dim>
					<dim>40</dim>
					<dim>40</dim>
				</port>
				<port id="1" precision="FP32">
					<dim>1</dim>
					<dim>64</dim>
					<dim>1</dim>
					<dim>1</dim>
				</port>
			</input>
			<output>
				<port id="2" precision="FP32" names="/model.6/m.0/cv1/conv/Conv_output_0">
					<dim>1</dim>
					<dim>64</dim>
					<dim>40</dim>
					<dim>40</dim>
				</port>
			</output>
		</layer>
		<layer id="243" name="/model.6/m.0/cv1/act/Mul" type="Swish" version="opset4">
			<input>
				<port id="0" precision="FP32">
					<dim>1</dim>
					<dim>64</dim>
					<dim>40</dim>
					<dim>40</dim>
				</port>
			</input>
			<output>
				<port id="1" precision="FP32" names="/model.6/m.0/cv1/act/Mul_output_0">
					<dim>1</dim>
					<dim>64</dim>
					<dim>40</dim>
					<dim>40</dim>
				</port>
			</output>
		</layer>
		<layer id="244" name="Constant_16318" type="Const" version="opset1">
			<data element_type="f32" shape="" offset="280436" size="4" />
			<output>
				<port id="0" precision="FP32" />
			</output>
		</layer>
		<layer id="245" name="Constant_16319" type="Const" version="opset1">
			<data element_type="f32" shape="" offset="280440" size="4" />
			<output>
				<port id="0" precision="FP32" />
			</output>
		</layer>
		<layer id="246" name="Constant_16320" type="Const" version="opset1">
			<data element_type="f32" shape="" offset="280436" size="4" />
			<output>
				<port id="0" precision="FP32" />
			</output>
		</layer>
		<layer id="247" name="Constant_16321" type="Const" version="opset1">
			<data element_type="f32" shape="" offset="280440" size="4" />
			<output>
				<port id="0" precision="FP32" />
			</output>
		</layer>
		<layer id="248" name="/model.6/m.0/cv1/act/Mul/fq_output_0" type="FakeQuantize" version="opset1">
			<data levels="256" auto_broadcast="numpy" />
			<input>
				<port id="0" precision="FP32">
					<dim>1</dim>
					<dim>64</dim>
					<dim>40</dim>
					<dim>40</dim>
				</port>
				<port id="1" precision="FP32" />
				<port id="2" precision="FP32" />
				<port id="3" precision="FP32" />
				<port id="4" precision="FP32" />
			</input>
			<output>
				<port id="5" precision="FP32">
					<dim>1</dim>
					<dim>64</dim>
					<dim>40</dim>
					<dim>40</dim>
				</port>
			</output>
		</layer>
		<layer id="249" name="model.6.m.0.cv2.conv.weight" type="Const" version="opset1">
			<data element_type="i8" shape="64, 64, 3, 3" offset="280444" size="36864" />
			<output>
				<port id="0" precision="I8">
					<dim>64</dim>
					<dim>64</dim>
					<dim>3</dim>
					<dim>3</dim>
				</port>
			</output>
		</layer>
		<layer id="250" name="Convert_242704" type="Convert" version="opset1">
			<data destination_type="f32" />
			<input>
				<port id="0" precision="I8">
					<dim>64</dim>
					<dim>64</dim>
					<dim>3</dim>
					<dim>3</dim>
				</port>
			</input>
			<output>
				<port id="1" precision="FP32">
					<dim>64</dim>
					<dim>64</dim>
					<dim>3</dim>
					<dim>3</dim>
				</port>
			</output>
		</layer>
		<layer id="251" name="Constant_242602" type="Const" version="opset1">
			<data element_type="f32" shape="64, 1, 1, 1" offset="317308" size="256" />
			<output>
				<port id="0" precision="FP32">
					<dim>64</dim>
					<dim>1</dim>
					<dim>1</dim>
					<dim>1</dim>
				</port>
			</output>
		</layer>
		<layer id="252" name="/model.6/m.0/cv2/conv/Conv/WithoutBiases/fq_weights_1" type="Multiply" version="opset1">
			<data auto_broadcast="numpy" />
			<input>
				<port id="0" precision="FP32">
					<dim>64</dim>
					<dim>64</dim>
					<dim>3</dim>
					<dim>3</dim>
				</port>
				<port id="1" precision="FP32">
					<dim>64</dim>
					<dim>1</dim>
					<dim>1</dim>
					<dim>1</dim>
				</port>
			</input>
			<output>
				<port id="2" precision="FP32">
					<dim>64</dim>
					<dim>64</dim>
					<dim>3</dim>
					<dim>3</dim>
				</port>
			</output>
		</layer>
		<layer id="253" name="/model.6/m.0/cv2/conv/Conv/WithoutBiases" type="Convolution" version="opset1">
			<data strides="1, 1" dilations="1, 1" pads_begin="1, 1" pads_end="1, 1" auto_pad="explicit" />
			<input>
				<port id="0" precision="FP32">
					<dim>1</dim>
					<dim>64</dim>
					<dim>40</dim>
					<dim>40</dim>
				</port>
				<port id="1" precision="FP32">
					<dim>64</dim>
					<dim>64</dim>
					<dim>3</dim>
					<dim>3</dim>
				</port>
			</input>
			<output>
				<port id="2" precision="FP32">
					<dim>1</dim>
					<dim>64</dim>
					<dim>40</dim>
					<dim>40</dim>
				</port>
			</output>
		</layer>
		<layer id="254" name="Reshape_426" type="Const" version="opset1">
			<data element_type="f32" shape="1, 64, 1, 1" offset="317564" size="256" />
			<output>
				<port id="0" precision="FP32">
					<dim>1</dim>
					<dim>64</dim>
					<dim>1</dim>
					<dim>1</dim>
				</port>
			</output>
		</layer>
		<layer id="255" name="/model.6/m.0/cv2/conv/Conv" type="Add" version="opset1">
			<data auto_broadcast="numpy" />
			<input>
				<port id="0" precision="FP32">
					<dim>1</dim>
					<dim>64</dim>
					<dim>40</dim>
					<dim>40</dim>
				</port>
				<port id="1" precision="FP32">
					<dim>1</dim>
					<dim>64</dim>
					<dim>1</dim>
					<dim>1</dim>
				</port>
			</input>
			<output>
				<port id="2" precision="FP32" names="/model.6/m.0/cv2/conv/Conv_output_0">
					<dim>1</dim>
					<dim>64</dim>
					<dim>40</dim>
					<dim>40</dim>
				</port>
			</output>
		</layer>
		<layer id="256" name="/model.6/m.0/cv2/act/Mul" type="Swish" version="opset4">
			<input>
				<port id="0" precision="FP32">
					<dim>1</dim>
					<dim>64</dim>
					<dim>40</dim>
					<dim>40</dim>
				</port>
			</input>
			<output>
				<port id="1" precision="FP32" names="/model.6/m.0/cv2/act/Mul_output_0">
					<dim>1</dim>
					<dim>64</dim>
					<dim>40</dim>
					<dim>40</dim>
				</port>
			</output>
		</layer>
		<layer id="257" name="Constant_16328" type="Const" version="opset1">
			<data element_type="f32" shape="" offset="317820" size="4" />
			<output>
				<port id="0" precision="FP32" />
			</output>
		</layer>
		<layer id="258" name="Constant_16329" type="Const" version="opset1">
			<data element_type="f32" shape="" offset="317824" size="4" />
			<output>
				<port id="0" precision="FP32" />
			</output>
		</layer>
		<layer id="259" name="Constant_16330" type="Const" version="opset1">
			<data element_type="f32" shape="" offset="317820" size="4" />
			<output>
				<port id="0" precision="FP32" />
			</output>
		</layer>
		<layer id="260" name="Constant_16331" type="Const" version="opset1">
			<data element_type="f32" shape="" offset="317824" size="4" />
			<output>
				<port id="0" precision="FP32" />
			</output>
		</layer>
		<layer id="261" name="/model.6/m.0/cv2/act/Mul/fq_output_0" type="FakeQuantize" version="opset1">
			<data levels="256" auto_broadcast="numpy" />
			<input>
				<port id="0" precision="FP32">
					<dim>1</dim>
					<dim>64</dim>
					<dim>40</dim>
					<dim>40</dim>
				</port>
				<port id="1" precision="FP32" />
				<port id="2" precision="FP32" />
				<port id="3" precision="FP32" />
				<port id="4" precision="FP32" />
			</input>
			<output>
				<port id="5" precision="FP32">
					<dim>1</dim>
					<dim>64</dim>
					<dim>40</dim>
					<dim>40</dim>
				</port>
			</output>
		</layer>
		<layer id="262" name="/model.6/m.0/Add" type="Add" version="opset1">
			<data auto_broadcast="numpy" />
			<input>
				<port id="0" precision="FP32">
					<dim>1</dim>
					<dim>64</dim>
					<dim>40</dim>
					<dim>40</dim>
				</port>
				<port id="1" precision="FP32">
					<dim>1</dim>
					<dim>64</dim>
					<dim>40</dim>
					<dim>40</dim>
				</port>
			</input>
			<output>
				<port id="2" precision="FP32" names="/model.6/m.0/Add_output_0">
					<dim>1</dim>
					<dim>64</dim>
					<dim>40</dim>
					<dim>40</dim>
				</port>
			</output>
		</layer>
		<layer id="263" name="Constant_16088" type="Const" version="opset1">
			<data element_type="f32" shape="" offset="243036" size="4" />
			<output>
				<port id="0" precision="FP32" />
			</output>
		</layer>
		<layer id="264" name="Constant_16089" type="Const" version="opset1">
			<data element_type="f32" shape="" offset="243040" size="4" />
			<output>
				<port id="0" precision="FP32" />
			</output>
		</layer>
		<layer id="265" name="Constant_16090" type="Const" version="opset1">
			<data element_type="f32" shape="" offset="243036" size="4" />
			<output>
				<port id="0" precision="FP32" />
			</output>
		</layer>
		<layer id="266" name="Constant_16091" type="Const" version="opset1">
			<data element_type="f32" shape="" offset="243040" size="4" />
			<output>
				<port id="0" precision="FP32" />
			</output>
		</layer>
		<layer id="267" name="/model.6/m.0/Add/fq_output_0" type="FakeQuantize" version="opset1">
			<data levels="256" auto_broadcast="numpy" />
			<input>
				<port id="0" precision="FP32">
					<dim>1</dim>
					<dim>64</dim>
					<dim>40</dim>
					<dim>40</dim>
				</port>
				<port id="1" precision="FP32" />
				<port id="2" precision="FP32" />
				<port id="3" precision="FP32" />
				<port id="4" precision="FP32" />
			</input>
			<output>
				<port id="5" precision="FP32">
					<dim>1</dim>
					<dim>64</dim>
					<dim>40</dim>
					<dim>40</dim>
				</port>
			</output>
		</layer>
		<layer id="268" name="model.6.m.1.cv1.conv.weight" type="Const" version="opset1">
			<data element_type="i8" shape="64, 64, 3, 3" offset="317828" size="36864" />
			<output>
				<port id="0" precision="I8">
					<dim>64</dim>
					<dim>64</dim>
					<dim>3</dim>
					<dim>3</dim>
				</port>
			</output>
		</layer>
		<layer id="269" name="Convert_242858" type="Convert" version="opset1">
			<data destination_type="f32" />
			<input>
				<port id="0" precision="I8">
					<dim>64</dim>
					<dim>64</dim>
					<dim>3</dim>
					<dim>3</dim>
				</port>
			</input>
			<output>
				<port id="1" precision="FP32">
					<dim>64</dim>
					<dim>64</dim>
					<dim>3</dim>
					<dim>3</dim>
				</port>
			</output>
		</layer>
		<layer id="270" name="Constant_242756" type="Const" version="opset1">
			<data element_type="f32" shape="64, 1, 1, 1" offset="354692" size="256" />
			<output>
				<port id="0" precision="FP32">
					<dim>64</dim>
					<dim>1</dim>
					<dim>1</dim>
					<dim>1</dim>
				</port>
			</output>
		</layer>
		<layer id="271" name="/model.6/m.1/cv1/conv/Conv/WithoutBiases/fq_weights_1" type="Multiply" version="opset1">
			<data auto_broadcast="numpy" />
			<input>
				<port id="0" precision="FP32">
					<dim>64</dim>
					<dim>64</dim>
					<dim>3</dim>
					<dim>3</dim>
				</port>
				<port id="1" precision="FP32">
					<dim>64</dim>
					<dim>1</dim>
					<dim>1</dim>
					<dim>1</dim>
				</port>
			</input>
			<output>
				<port id="2" precision="FP32">
					<dim>64</dim>
					<dim>64</dim>
					<dim>3</dim>
					<dim>3</dim>
				</port>
			</output>
		</layer>
		<layer id="272" name="/model.6/m.1/cv1/conv/Conv/WithoutBiases" type="Convolution" version="opset1">
			<data strides="1, 1" dilations="1, 1" pads_begin="1, 1" pads_end="1, 1" auto_pad="explicit" />
			<input>
				<port id="0" precision="FP32">
					<dim>1</dim>
					<dim>64</dim>
					<dim>40</dim>
					<dim>40</dim>
				</port>
				<port id="1" precision="FP32">
					<dim>64</dim>
					<dim>64</dim>
					<dim>3</dim>
					<dim>3</dim>
				</port>
			</input>
			<output>
				<port id="2" precision="FP32">
					<dim>1</dim>
					<dim>64</dim>
					<dim>40</dim>
					<dim>40</dim>
				</port>
			</output>
		</layer>
		<layer id="273" name="Reshape_444" type="Const" version="opset1">
			<data element_type="f32" shape="1, 64, 1, 1" offset="354948" size="256" />
			<output>
				<port id="0" precision="FP32">
					<dim>1</dim>
					<dim>64</dim>
					<dim>1</dim>
					<dim>1</dim>
				</port>
			</output>
		</layer>
		<layer id="274" name="/model.6/m.1/cv1/conv/Conv" type="Add" version="opset1">
			<data auto_broadcast="numpy" />
			<input>
				<port id="0" precision="FP32">
					<dim>1</dim>
					<dim>64</dim>
					<dim>40</dim>
					<dim>40</dim>
				</port>
				<port id="1" precision="FP32">
					<dim>1</dim>
					<dim>64</dim>
					<dim>1</dim>
					<dim>1</dim>
				</port>
			</input>
			<output>
				<port id="2" precision="FP32" names="/model.6/m.1/cv1/conv/Conv_output_0">
					<dim>1</dim>
					<dim>64</dim>
					<dim>40</dim>
					<dim>40</dim>
				</port>
			</output>
		</layer>
		<layer id="275" name="/model.6/m.1/cv1/act/Mul" type="Swish" version="opset4">
			<input>
				<port id="0" precision="FP32">
					<dim>1</dim>
					<dim>64</dim>
					<dim>40</dim>
					<dim>40</dim>
				</port>
			</input>
			<output>
				<port id="1" precision="FP32" names="/model.6/m.1/cv1/act/Mul_output_0">
					<dim>1</dim>
					<dim>64</dim>
					<dim>40</dim>
					<dim>40</dim>
				</port>
			</output>
		</layer>
		<layer id="276" name="Constant_16338" type="Const" version="opset1">
			<data element_type="f32" shape="" offset="355204" size="4" />
			<output>
				<port id="0" precision="FP32" />
			</output>
		</layer>
		<layer id="277" name="Constant_16339" type="Const" version="opset1">
			<data element_type="f32" shape="" offset="355208" size="4" />
			<output>
				<port id="0" precision="FP32" />
			</output>
		</layer>
		<layer id="278" name="Constant_16340" type="Const" version="opset1">
			<data element_type="f32" shape="" offset="355204" size="4" />
			<output>
				<port id="0" precision="FP32" />
			</output>
		</layer>
		<layer id="279" name="Constant_16341" type="Const" version="opset1">
			<data element_type="f32" shape="" offset="355208" size="4" />
			<output>
				<port id="0" precision="FP32" />
			</output>
		</layer>
		<layer id="280" name="/model.6/m.1/cv1/act/Mul/fq_output_0" type="FakeQuantize" version="opset1">
			<data levels="256" auto_broadcast="numpy" />
			<input>
				<port id="0" precision="FP32">
					<dim>1</dim>
					<dim>64</dim>
					<dim>40</dim>
					<dim>40</dim>
				</port>
				<port id="1" precision="FP32" />
				<port id="2" precision="FP32" />
				<port id="3" precision="FP32" />
				<port id="4" precision="FP32" />
			</input>
			<output>
				<port id="5" precision="FP32">
					<dim>1</dim>
					<dim>64</dim>
					<dim>40</dim>
					<dim>40</dim>
				</port>
			</output>
		</layer>
		<layer id="281" name="model.6.m.1.cv2.conv.weight" type="Const" version="opset1">
			<data element_type="i8" shape="64, 64, 3, 3" offset="355212" size="36864" />
			<output>
				<port id="0" precision="I8">
					<dim>64</dim>
					<dim>64</dim>
					<dim>3</dim>
					<dim>3</dim>
				</port>
			</output>
		</layer>
		<layer id="282" name="Convert_243012" type="Convert" version="opset1">
			<data destination_type="f32" />
			<input>
				<port id="0" precision="I8">
					<dim>64</dim>
					<dim>64</dim>
					<dim>3</dim>
					<dim>3</dim>
				</port>
			</input>
			<output>
				<port id="1" precision="FP32">
					<dim>64</dim>
					<dim>64</dim>
					<dim>3</dim>
					<dim>3</dim>
				</port>
			</output>
		</layer>
		<layer id="283" name="Constant_242910" type="Const" version="opset1">
			<data element_type="f32" shape="64, 1, 1, 1" offset="392076" size="256" />
			<output>
				<port id="0" precision="FP32">
					<dim>64</dim>
					<dim>1</dim>
					<dim>1</dim>
					<dim>1</dim>
				</port>
			</output>
		</layer>
		<layer id="284" name="/model.6/m.1/cv2/conv/Conv/WithoutBiases/fq_weights_1" type="Multiply" version="opset1">
			<data auto_broadcast="numpy" />
			<input>
				<port id="0" precision="FP32">
					<dim>64</dim>
					<dim>64</dim>
					<dim>3</dim>
					<dim>3</dim>
				</port>
				<port id="1" precision="FP32">
					<dim>64</dim>
					<dim>1</dim>
					<dim>1</dim>
					<dim>1</dim>
				</port>
			</input>
			<output>
				<port id="2" precision="FP32">
					<dim>64</dim>
					<dim>64</dim>
					<dim>3</dim>
					<dim>3</dim>
				</port>
			</output>
		</layer>
		<layer id="285" name="/model.6/m.1/cv2/conv/Conv/WithoutBiases" type="Convolution" version="opset1">
			<data strides="1, 1" dilations="1, 1" pads_begin="1, 1" pads_end="1, 1" auto_pad="explicit" />
			<input>
				<port id="0" precision="FP32">
					<dim>1</dim>
					<dim>64</dim>
					<dim>40</dim>
					<dim>40</dim>
				</port>
				<port id="1" precision="FP32">
					<dim>64</dim>
					<dim>64</dim>
					<dim>3</dim>
					<dim>3</dim>
				</port>
			</input>
			<output>
				<port id="2" precision="FP32">
					<dim>1</dim>
					<dim>64</dim>
					<dim>40</dim>
					<dim>40</dim>
				</port>
			</output>
		</layer>
		<layer id="286" name="Reshape_461" type="Const" version="opset1">
			<data element_type="f32" shape="1, 64, 1, 1" offset="392332" size="256" />
			<output>
				<port id="0" precision="FP32">
					<dim>1</dim>
					<dim>64</dim>
					<dim>1</dim>
					<dim>1</dim>
				</port>
			</output>
		</layer>
		<layer id="287" name="/model.6/m.1/cv2/conv/Conv" type="Add" version="opset1">
			<data auto_broadcast="numpy" />
			<input>
				<port id="0" precision="FP32">
					<dim>1</dim>
					<dim>64</dim>
					<dim>40</dim>
					<dim>40</dim>
				</port>
				<port id="1" precision="FP32">
					<dim>1</dim>
					<dim>64</dim>
					<dim>1</dim>
					<dim>1</dim>
				</port>
			</input>
			<output>
				<port id="2" precision="FP32" names="/model.6/m.1/cv2/conv/Conv_output_0">
					<dim>1</dim>
					<dim>64</dim>
					<dim>40</dim>
					<dim>40</dim>
				</port>
			</output>
		</layer>
		<layer id="288" name="/model.6/m.1/cv2/act/Mul" type="Swish" version="opset4">
			<input>
				<port id="0" precision="FP32">
					<dim>1</dim>
					<dim>64</dim>
					<dim>40</dim>
					<dim>40</dim>
				</port>
			</input>
			<output>
				<port id="1" precision="FP32" names="/model.6/m.1/cv2/act/Mul_output_0">
					<dim>1</dim>
					<dim>64</dim>
					<dim>40</dim>
					<dim>40</dim>
				</port>
			</output>
		</layer>
		<layer id="289" name="Constant_16348" type="Const" version="opset1">
			<data element_type="f32" shape="" offset="392588" size="4" />
			<output>
				<port id="0" precision="FP32" />
			</output>
		</layer>
		<layer id="290" name="Constant_16349" type="Const" version="opset1">
			<data element_type="f32" shape="" offset="392592" size="4" />
			<output>
				<port id="0" precision="FP32" />
			</output>
		</layer>
		<layer id="291" name="Constant_16350" type="Const" version="opset1">
			<data element_type="f32" shape="" offset="392588" size="4" />
			<output>
				<port id="0" precision="FP32" />
			</output>
		</layer>
		<layer id="292" name="Constant_16351" type="Const" version="opset1">
			<data element_type="f32" shape="" offset="392592" size="4" />
			<output>
				<port id="0" precision="FP32" />
			</output>
		</layer>
		<layer id="293" name="/model.6/m.1/cv2/act/Mul/fq_output_0" type="FakeQuantize" version="opset1">
			<data levels="256" auto_broadcast="numpy" />
			<input>
				<port id="0" precision="FP32">
					<dim>1</dim>
					<dim>64</dim>
					<dim>40</dim>
					<dim>40</dim>
				</port>
				<port id="1" precision="FP32" />
				<port id="2" precision="FP32" />
				<port id="3" precision="FP32" />
				<port id="4" precision="FP32" />
			</input>
			<output>
				<port id="5" precision="FP32">
					<dim>1</dim>
					<dim>64</dim>
					<dim>40</dim>
					<dim>40</dim>
				</port>
			</output>
		</layer>
		<layer id="294" name="/model.6/m.1/Add" type="Add" version="opset1">
			<data auto_broadcast="numpy" />
			<input>
				<port id="0" precision="FP32">
					<dim>1</dim>
					<dim>64</dim>
					<dim>40</dim>
					<dim>40</dim>
				</port>
				<port id="1" precision="FP32">
					<dim>1</dim>
					<dim>64</dim>
					<dim>40</dim>
					<dim>40</dim>
				</port>
			</input>
			<output>
				<port id="2" precision="FP32" names="/model.6/m.1/Add_output_0">
					<dim>1</dim>
					<dim>64</dim>
					<dim>40</dim>
					<dim>40</dim>
				</port>
			</output>
		</layer>
		<layer id="295" name="Constant_16078" type="Const" version="opset1">
			<data element_type="f32" shape="" offset="243036" size="4" />
			<output>
				<port id="0" precision="FP32" />
			</output>
		</layer>
		<layer id="296" name="Constant_16079" type="Const" version="opset1">
			<data element_type="f32" shape="" offset="243040" size="4" />
			<output>
				<port id="0" precision="FP32" />
			</output>
		</layer>
		<layer id="297" name="Constant_16080" type="Const" version="opset1">
			<data element_type="f32" shape="" offset="243036" size="4" />
			<output>
				<port id="0" precision="FP32" />
			</output>
		</layer>
		<layer id="298" name="Constant_16081" type="Const" version="opset1">
			<data element_type="f32" shape="" offset="243040" size="4" />
			<output>
				<port id="0" precision="FP32" />
			</output>
		</layer>
		<layer id="299" name="/model.6/m.1/Add/fq_output_0" type="FakeQuantize" version="opset1">
			<data levels="256" auto_broadcast="numpy" />
			<input>
				<port id="0" precision="FP32">
					<dim>1</dim>
					<dim>64</dim>
					<dim>40</dim>
					<dim>40</dim>
				</port>
				<port id="1" precision="FP32" />
				<port id="2" precision="FP32" />
				<port id="3" precision="FP32" />
				<port id="4" precision="FP32" />
			</input>
			<output>
				<port id="5" precision="FP32">
					<dim>1</dim>
					<dim>64</dim>
					<dim>40</dim>
					<dim>40</dim>
				</port>
			</output>
		</layer>
		<layer id="300" name="/model.6/Concat" type="Concat" version="opset1">
			<data axis="1" />
			<input>
				<port id="0" precision="FP32">
					<dim>1</dim>
					<dim>64</dim>
					<dim>40</dim>
					<dim>40</dim>
				</port>
				<port id="1" precision="FP32">
					<dim>1</dim>
					<dim>64</dim>
					<dim>40</dim>
					<dim>40</dim>
				</port>
				<port id="2" precision="FP32">
					<dim>1</dim>
					<dim>64</dim>
					<dim>40</dim>
					<dim>40</dim>
				</port>
				<port id="3" precision="FP32">
					<dim>1</dim>
					<dim>64</dim>
					<dim>40</dim>
					<dim>40</dim>
				</port>
			</input>
			<output>
				<port id="4" precision="FP32" names="/model.6/Concat_output_0">
					<dim>1</dim>
					<dim>256</dim>
					<dim>40</dim>
					<dim>40</dim>
				</port>
			</output>
		</layer>
		<layer id="301" name="model.6.cv2.conv.weight" type="Const" version="opset1">
			<data element_type="i8" shape="128, 256, 1, 1" offset="392596" size="32768" />
			<output>
				<port id="0" precision="I8">
					<dim>128</dim>
					<dim>256</dim>
					<dim>1</dim>
					<dim>1</dim>
				</port>
			</output>
		</layer>
		<layer id="302" name="Convert_243166" type="Convert" version="opset1">
			<data destination_type="f32" />
			<input>
				<port id="0" precision="I8">
					<dim>128</dim>
					<dim>256</dim>
					<dim>1</dim>
					<dim>1</dim>
				</port>
			</input>
			<output>
				<port id="1" precision="FP32">
					<dim>128</dim>
					<dim>256</dim>
					<dim>1</dim>
					<dim>1</dim>
				</port>
			</output>
		</layer>
		<layer id="303" name="Constant_243064" type="Const" version="opset1">
			<data element_type="f32" shape="128, 1, 1, 1" offset="425364" size="512" />
			<output>
				<port id="0" precision="FP32">
					<dim>128</dim>
					<dim>1</dim>
					<dim>1</dim>
					<dim>1</dim>
				</port>
			</output>
		</layer>
		<layer id="304" name="/model.6/cv2/conv/Conv/WithoutBiases/fq_weights_1" type="Multiply" version="opset1">
			<data auto_broadcast="numpy" />
			<input>
				<port id="0" precision="FP32">
					<dim>128</dim>
					<dim>256</dim>
					<dim>1</dim>
					<dim>1</dim>
				</port>
				<port id="1" precision="FP32">
					<dim>128</dim>
					<dim>1</dim>
					<dim>1</dim>
					<dim>1</dim>
				</port>
			</input>
			<output>
				<port id="2" precision="FP32">
					<dim>128</dim>
					<dim>256</dim>
					<dim>1</dim>
					<dim>1</dim>
				</port>
			</output>
		</layer>
		<layer id="305" name="/model.6/cv2/conv/Conv/WithoutBiases" type="Convolution" version="opset1">
			<data strides="1, 1" dilations="1, 1" pads_begin="0, 0" pads_end="0, 0" auto_pad="explicit" />
			<input>
				<port id="0" precision="FP32">
					<dim>1</dim>
					<dim>256</dim>
					<dim>40</dim>
					<dim>40</dim>
				</port>
				<port id="1" precision="FP32">
					<dim>128</dim>
					<dim>256</dim>
					<dim>1</dim>
					<dim>1</dim>
				</port>
			</input>
			<output>
				<port id="2" precision="FP32">
					<dim>1</dim>
					<dim>128</dim>
					<dim>40</dim>
					<dim>40</dim>
				</port>
			</output>
		</layer>
		<layer id="306" name="Reshape_480" type="Const" version="opset1">
			<data element_type="f32" shape="1, 128, 1, 1" offset="425876" size="512" />
			<output>
				<port id="0" precision="FP32">
					<dim>1</dim>
					<dim>128</dim>
					<dim>1</dim>
					<dim>1</dim>
				</port>
			</output>
		</layer>
		<layer id="307" name="/model.6/cv2/conv/Conv" type="Add" version="opset1">
			<data auto_broadcast="numpy" />
			<input>
				<port id="0" precision="FP32">
					<dim>1</dim>
					<dim>128</dim>
					<dim>40</dim>
					<dim>40</dim>
				</port>
				<port id="1" precision="FP32">
					<dim>1</dim>
					<dim>128</dim>
					<dim>1</dim>
					<dim>1</dim>
				</port>
			</input>
			<output>
				<port id="2" precision="FP32" names="/model.6/cv2/conv/Conv_output_0">
					<dim>1</dim>
					<dim>128</dim>
					<dim>40</dim>
					<dim>40</dim>
				</port>
			</output>
		</layer>
		<layer id="308" name="/model.6/cv2/act/Mul" type="Swish" version="opset4">
			<input>
				<port id="0" precision="FP32">
					<dim>1</dim>
					<dim>128</dim>
					<dim>40</dim>
					<dim>40</dim>
				</port>
			</input>
			<output>
				<port id="1" precision="FP32" names="/model.6/cv2/act/Mul_output_0">
					<dim>1</dim>
					<dim>128</dim>
					<dim>40</dim>
					<dim>40</dim>
				</port>
			</output>
		</layer>
		<layer id="309" name="Constant_16093" type="Const" version="opset1">
			<data element_type="f32" shape="" offset="426388" size="4" />
			<output>
				<port id="0" precision="FP32" />
			</output>
		</layer>
		<layer id="310" name="Constant_16094" type="Const" version="opset1">
			<data element_type="f32" shape="" offset="426392" size="4" />
			<output>
				<port id="0" precision="FP32" />
			</output>
		</layer>
		<layer id="311" name="Constant_16095" type="Const" version="opset1">
			<data element_type="f32" shape="" offset="426388" size="4" />
			<output>
				<port id="0" precision="FP32" />
			</output>
		</layer>
		<layer id="312" name="Constant_16096" type="Const" version="opset1">
			<data element_type="f32" shape="" offset="426392" size="4" />
			<output>
				<port id="0" precision="FP32" />
			</output>
		</layer>
		<layer id="313" name="/model.6/cv2/act/Mul/fq_output_0" type="FakeQuantize" version="opset1">
			<data levels="256" auto_broadcast="numpy" />
			<input>
				<port id="0" precision="FP32">
					<dim>1</dim>
					<dim>128</dim>
					<dim>40</dim>
					<dim>40</dim>
				</port>
				<port id="1" precision="FP32" />
				<port id="2" precision="FP32" />
				<port id="3" precision="FP32" />
				<port id="4" precision="FP32" />
			</input>
			<output>
				<port id="5" precision="FP32">
					<dim>1</dim>
					<dim>128</dim>
					<dim>40</dim>
					<dim>40</dim>
				</port>
			</output>
		</layer>
		<layer id="314" name="model.7.conv.weight" type="Const" version="opset1">
			<data element_type="i8" shape="256, 128, 3, 3" offset="426396" size="294912" />
			<output>
				<port id="0" precision="I8">
					<dim>256</dim>
					<dim>128</dim>
					<dim>3</dim>
					<dim>3</dim>
				</port>
			</output>
		</layer>
		<layer id="315" name="Convert_243320" type="Convert" version="opset1">
			<data destination_type="f32" />
			<input>
				<port id="0" precision="I8">
					<dim>256</dim>
					<dim>128</dim>
					<dim>3</dim>
					<dim>3</dim>
				</port>
			</input>
			<output>
				<port id="1" precision="FP32">
					<dim>256</dim>
					<dim>128</dim>
					<dim>3</dim>
					<dim>3</dim>
				</port>
			</output>
		</layer>
		<layer id="316" name="Constant_243218" type="Const" version="opset1">
			<data element_type="f32" shape="256, 1, 1, 1" offset="721308" size="1024" />
			<output>
				<port id="0" precision="FP32">
					<dim>256</dim>
					<dim>1</dim>
					<dim>1</dim>
					<dim>1</dim>
				</port>
			</output>
		</layer>
		<layer id="317" name="/model.7/conv/Conv/WithoutBiases/fq_weights_1" type="Multiply" version="opset1">
			<data auto_broadcast="numpy" />
			<input>
				<port id="0" precision="FP32">
					<dim>256</dim>
					<dim>128</dim>
					<dim>3</dim>
					<dim>3</dim>
				</port>
				<port id="1" precision="FP32">
					<dim>256</dim>
					<dim>1</dim>
					<dim>1</dim>
					<dim>1</dim>
				</port>
			</input>
			<output>
				<port id="2" precision="FP32">
					<dim>256</dim>
					<dim>128</dim>
					<dim>3</dim>
					<dim>3</dim>
				</port>
			</output>
		</layer>
		<layer id="318" name="/model.7/conv/Conv/WithoutBiases" type="Convolution" version="opset1">
			<data strides="2, 2" dilations="1, 1" pads_begin="1, 1" pads_end="1, 1" auto_pad="explicit" />
			<input>
				<port id="0" precision="FP32">
					<dim>1</dim>
					<dim>128</dim>
					<dim>40</dim>
					<dim>40</dim>
				</port>
				<port id="1" precision="FP32">
					<dim>256</dim>
					<dim>128</dim>
					<dim>3</dim>
					<dim>3</dim>
				</port>
			</input>
			<output>
				<port id="2" precision="FP32">
					<dim>1</dim>
					<dim>256</dim>
					<dim>20</dim>
					<dim>20</dim>
				</port>
			</output>
		</layer>
		<layer id="319" name="Reshape_497" type="Const" version="opset1">
			<data element_type="f32" shape="1, 256, 1, 1" offset="722332" size="1024" />
			<output>
				<port id="0" precision="FP32">
					<dim>1</dim>
					<dim>256</dim>
					<dim>1</dim>
					<dim>1</dim>
				</port>
			</output>
		</layer>
		<layer id="320" name="/model.7/conv/Conv" type="Add" version="opset1">
			<data auto_broadcast="numpy" />
			<input>
				<port id="0" precision="FP32">
					<dim>1</dim>
					<dim>256</dim>
					<dim>20</dim>
					<dim>20</dim>
				</port>
				<port id="1" precision="FP32">
					<dim>1</dim>
					<dim>256</dim>
					<dim>1</dim>
					<dim>1</dim>
				</port>
			</input>
			<output>
				<port id="2" precision="FP32" names="/model.7/conv/Conv_output_0">
					<dim>1</dim>
					<dim>256</dim>
					<dim>20</dim>
					<dim>20</dim>
				</port>
			</output>
		</layer>
		<layer id="321" name="/model.7/act/Mul" type="Swish" version="opset4">
			<input>
				<port id="0" precision="FP32">
					<dim>1</dim>
					<dim>256</dim>
					<dim>20</dim>
					<dim>20</dim>
				</port>
			</input>
			<output>
				<port id="1" precision="FP32" names="/model.7/act/Mul_output_0">
					<dim>1</dim>
					<dim>256</dim>
					<dim>20</dim>
					<dim>20</dim>
				</port>
			</output>
		</layer>
		<layer id="322" name="Constant_16363" type="Const" version="opset1">
			<data element_type="f32" shape="" offset="723356" size="4" />
			<output>
				<port id="0" precision="FP32" />
			</output>
		</layer>
		<layer id="323" name="Constant_16364" type="Const" version="opset1">
			<data element_type="f32" shape="" offset="723360" size="4" />
			<output>
				<port id="0" precision="FP32" />
			</output>
		</layer>
		<layer id="324" name="Constant_16365" type="Const" version="opset1">
			<data element_type="f32" shape="" offset="723356" size="4" />
			<output>
				<port id="0" precision="FP32" />
			</output>
		</layer>
		<layer id="325" name="Constant_16366" type="Const" version="opset1">
			<data element_type="f32" shape="" offset="723360" size="4" />
			<output>
				<port id="0" precision="FP32" />
			</output>
		</layer>
		<layer id="326" name="/model.7/act/Mul/fq_output_0" type="FakeQuantize" version="opset1">
			<data levels="256" auto_broadcast="numpy" />
			<input>
				<port id="0" precision="FP32">
					<dim>1</dim>
					<dim>256</dim>
					<dim>20</dim>
					<dim>20</dim>
				</port>
				<port id="1" precision="FP32" />
				<port id="2" precision="FP32" />
				<port id="3" precision="FP32" />
				<port id="4" precision="FP32" />
			</input>
			<output>
				<port id="5" precision="FP32">
					<dim>1</dim>
					<dim>256</dim>
					<dim>20</dim>
					<dim>20</dim>
				</port>
			</output>
		</layer>
		<layer id="327" name="model.8.cv1.conv.weight" type="Const" version="opset1">
			<data element_type="i8" shape="256, 256, 1, 1" offset="723364" size="65536" />
			<output>
				<port id="0" precision="I8">
					<dim>256</dim>
					<dim>256</dim>
					<dim>1</dim>
					<dim>1</dim>
				</port>
			</output>
		</layer>
		<layer id="328" name="Convert_243474" type="Convert" version="opset1">
			<data destination_type="f32" />
			<input>
				<port id="0" precision="I8">
					<dim>256</dim>
					<dim>256</dim>
					<dim>1</dim>
					<dim>1</dim>
				</port>
			</input>
			<output>
				<port id="1" precision="FP32">
					<dim>256</dim>
					<dim>256</dim>
					<dim>1</dim>
					<dim>1</dim>
				</port>
			</output>
		</layer>
		<layer id="329" name="Constant_243372" type="Const" version="opset1">
			<data element_type="f32" shape="256, 1, 1, 1" offset="788900" size="1024" />
			<output>
				<port id="0" precision="FP32">
					<dim>256</dim>
					<dim>1</dim>
					<dim>1</dim>
					<dim>1</dim>
				</port>
			</output>
		</layer>
		<layer id="330" name="/model.8/cv1/conv/Conv/WithoutBiases/fq_weights_1" type="Multiply" version="opset1">
			<data auto_broadcast="numpy" />
			<input>
				<port id="0" precision="FP32">
					<dim>256</dim>
					<dim>256</dim>
					<dim>1</dim>
					<dim>1</dim>
				</port>
				<port id="1" precision="FP32">
					<dim>256</dim>
					<dim>1</dim>
					<dim>1</dim>
					<dim>1</dim>
				</port>
			</input>
			<output>
				<port id="2" precision="FP32">
					<dim>256</dim>
					<dim>256</dim>
					<dim>1</dim>
					<dim>1</dim>
				</port>
			</output>
		</layer>
		<layer id="331" name="/model.8/cv1/conv/Conv/WithoutBiases" type="Convolution" version="opset1">
			<data strides="1, 1" dilations="1, 1" pads_begin="0, 0" pads_end="0, 0" auto_pad="explicit" />
			<input>
				<port id="0" precision="FP32">
					<dim>1</dim>
					<dim>256</dim>
					<dim>20</dim>
					<dim>20</dim>
				</port>
				<port id="1" precision="FP32">
					<dim>256</dim>
					<dim>256</dim>
					<dim>1</dim>
					<dim>1</dim>
				</port>
			</input>
			<output>
				<port id="2" precision="FP32">
					<dim>1</dim>
					<dim>256</dim>
					<dim>20</dim>
					<dim>20</dim>
				</port>
			</output>
		</layer>
		<layer id="332" name="Reshape_514" type="Const" version="opset1">
			<data element_type="f32" shape="1, 256, 1, 1" offset="789924" size="1024" />
			<output>
				<port id="0" precision="FP32">
					<dim>1</dim>
					<dim>256</dim>
					<dim>1</dim>
					<dim>1</dim>
				</port>
			</output>
		</layer>
		<layer id="333" name="/model.8/cv1/conv/Conv" type="Add" version="opset1">
			<data auto_broadcast="numpy" />
			<input>
				<port id="0" precision="FP32">
					<dim>1</dim>
					<dim>256</dim>
					<dim>20</dim>
					<dim>20</dim>
				</port>
				<port id="1" precision="FP32">
					<dim>1</dim>
					<dim>256</dim>
					<dim>1</dim>
					<dim>1</dim>
				</port>
			</input>
			<output>
				<port id="2" precision="FP32" names="/model.8/cv1/conv/Conv_output_0">
					<dim>1</dim>
					<dim>256</dim>
					<dim>20</dim>
					<dim>20</dim>
				</port>
			</output>
		</layer>
		<layer id="334" name="/model.8/cv1/act/Mul" type="Swish" version="opset4">
			<input>
				<port id="0" precision="FP32">
					<dim>1</dim>
					<dim>256</dim>
					<dim>20</dim>
					<dim>20</dim>
				</port>
			</input>
			<output>
				<port id="1" precision="FP32" names="/model.8/cv1/act/Mul_output_0">
					<dim>1</dim>
					<dim>256</dim>
					<dim>20</dim>
					<dim>20</dim>
				</port>
			</output>
		</layer>
		<layer id="335" name="Constant_16103" type="Const" version="opset1">
			<data element_type="f32" shape="" offset="790948" size="4" />
			<output>
				<port id="0" precision="FP32" />
			</output>
		</layer>
		<layer id="336" name="Constant_16104" type="Const" version="opset1">
			<data element_type="f32" shape="" offset="790952" size="4" />
			<output>
				<port id="0" precision="FP32" />
			</output>
		</layer>
		<layer id="337" name="Constant_16105" type="Const" version="opset1">
			<data element_type="f32" shape="" offset="790948" size="4" />
			<output>
				<port id="0" precision="FP32" />
			</output>
		</layer>
		<layer id="338" name="Constant_16106" type="Const" version="opset1">
			<data element_type="f32" shape="" offset="790952" size="4" />
			<output>
				<port id="0" precision="FP32" />
			</output>
		</layer>
		<layer id="339" name="/model.8/cv1/act/Mul/fq_output_0" type="FakeQuantize" version="opset1">
			<data levels="256" auto_broadcast="numpy" />
			<input>
				<port id="0" precision="FP32">
					<dim>1</dim>
					<dim>256</dim>
					<dim>20</dim>
					<dim>20</dim>
				</port>
				<port id="1" precision="FP32" />
				<port id="2" precision="FP32" />
				<port id="3" precision="FP32" />
				<port id="4" precision="FP32" />
			</input>
			<output>
				<port id="5" precision="FP32">
					<dim>1</dim>
					<dim>256</dim>
					<dim>20</dim>
					<dim>20</dim>
				</port>
			</output>
		</layer>
		<layer id="340" name="Constant_521" type="Const" version="opset1">
			<data element_type="i64" shape="" offset="73972" size="8" />
			<output>
				<port id="0" precision="I64" />
			</output>
		</layer>
		<layer id="341" name="Constant_80" type="Const" version="opset1">
			<data element_type="i64" shape="2" offset="790956" size="16" />
			<output>
				<port id="0" precision="I64" names="onnx::Split_211">
					<dim>2</dim>
				</port>
			</output>
		</layer>
		<layer id="342" name="/model.8/Split" type="VariadicSplit" version="opset1">
			<input>
				<port id="0" precision="FP32">
					<dim>1</dim>
					<dim>256</dim>
					<dim>20</dim>
					<dim>20</dim>
				</port>
				<port id="1" precision="I64" />
				<port id="2" precision="I64">
					<dim>2</dim>
				</port>
			</input>
			<output>
				<port id="3" precision="FP32" names="/model.8/Split_output_0">
					<dim>1</dim>
					<dim>128</dim>
					<dim>20</dim>
					<dim>20</dim>
				</port>
				<port id="4" precision="FP32" names="/model.8/Split_output_1">
					<dim>1</dim>
					<dim>128</dim>
					<dim>20</dim>
					<dim>20</dim>
				</port>
			</output>
		</layer>
		<layer id="343" name="model.8.m.0.cv1.conv.weight" type="Const" version="opset1">
			<data element_type="i8" shape="128, 128, 3, 3" offset="790972" size="147456" />
			<output>
				<port id="0" precision="I8">
					<dim>128</dim>
					<dim>128</dim>
					<dim>3</dim>
					<dim>3</dim>
				</port>
			</output>
		</layer>
		<layer id="344" name="Convert_243628" type="Convert" version="opset1">
			<data destination_type="f32" />
			<input>
				<port id="0" precision="I8">
					<dim>128</dim>
					<dim>128</dim>
					<dim>3</dim>
					<dim>3</dim>
				</port>
			</input>
			<output>
				<port id="1" precision="FP32">
					<dim>128</dim>
					<dim>128</dim>
					<dim>3</dim>
					<dim>3</dim>
				</port>
			</output>
		</layer>
		<layer id="345" name="Constant_243526" type="Const" version="opset1">
			<data element_type="f32" shape="128, 1, 1, 1" offset="938428" size="512" />
			<output>
				<port id="0" precision="FP32">
					<dim>128</dim>
					<dim>1</dim>
					<dim>1</dim>
					<dim>1</dim>
				</port>
			</output>
		</layer>
		<layer id="346" name="/model.8/m.0/cv1/conv/Conv/WithoutBiases/fq_weights_1" type="Multiply" version="opset1">
			<data auto_broadcast="numpy" />
			<input>
				<port id="0" precision="FP32">
					<dim>128</dim>
					<dim>128</dim>
					<dim>3</dim>
					<dim>3</dim>
				</port>
				<port id="1" precision="FP32">
					<dim>128</dim>
					<dim>1</dim>
					<dim>1</dim>
					<dim>1</dim>
				</port>
			</input>
			<output>
				<port id="2" precision="FP32">
					<dim>128</dim>
					<dim>128</dim>
					<dim>3</dim>
					<dim>3</dim>
				</port>
			</output>
		</layer>
		<layer id="347" name="/model.8/m.0/cv1/conv/Conv/WithoutBiases" type="Convolution" version="opset1">
			<data strides="1, 1" dilations="1, 1" pads_begin="1, 1" pads_end="1, 1" auto_pad="explicit" />
			<input>
				<port id="0" precision="FP32">
					<dim>1</dim>
					<dim>128</dim>
					<dim>20</dim>
					<dim>20</dim>
				</port>
				<port id="1" precision="FP32">
					<dim>128</dim>
					<dim>128</dim>
					<dim>3</dim>
					<dim>3</dim>
				</port>
			</input>
			<output>
				<port id="2" precision="FP32">
					<dim>1</dim>
					<dim>128</dim>
					<dim>20</dim>
					<dim>20</dim>
				</port>
			</output>
		</layer>
		<layer id="348" name="Reshape_534" type="Const" version="opset1">
			<data element_type="f32" shape="1, 128, 1, 1" offset="938940" size="512" />
			<output>
				<port id="0" precision="FP32">
					<dim>1</dim>
					<dim>128</dim>
					<dim>1</dim>
					<dim>1</dim>
				</port>
			</output>
		</layer>
		<layer id="349" name="/model.8/m.0/cv1/conv/Conv" type="Add" version="opset1">
			<data auto_broadcast="numpy" />
			<input>
				<port id="0" precision="FP32">
					<dim>1</dim>
					<dim>128</dim>
					<dim>20</dim>
					<dim>20</dim>
				</port>
				<port id="1" precision="FP32">
					<dim>1</dim>
					<dim>128</dim>
					<dim>1</dim>
					<dim>1</dim>
				</port>
			</input>
			<output>
				<port id="2" precision="FP32" names="/model.8/m.0/cv1/conv/Conv_output_0">
					<dim>1</dim>
					<dim>128</dim>
					<dim>20</dim>
					<dim>20</dim>
				</port>
			</output>
		</layer>
		<layer id="350" name="/model.8/m.0/cv1/act/Mul" type="Swish" version="opset4">
			<input>
				<port id="0" precision="FP32">
					<dim>1</dim>
					<dim>128</dim>
					<dim>20</dim>
					<dim>20</dim>
				</port>
			</input>
			<output>
				<port id="1" precision="FP32" names="/model.8/m.0/cv1/act/Mul_output_0">
					<dim>1</dim>
					<dim>128</dim>
					<dim>20</dim>
					<dim>20</dim>
				</port>
			</output>
		</layer>
		<layer id="351" name="Constant_16378" type="Const" version="opset1">
			<data element_type="f32" shape="" offset="939452" size="4" />
			<output>
				<port id="0" precision="FP32" />
			</output>
		</layer>
		<layer id="352" name="Constant_16379" type="Const" version="opset1">
			<data element_type="f32" shape="" offset="939456" size="4" />
			<output>
				<port id="0" precision="FP32" />
			</output>
		</layer>
		<layer id="353" name="Constant_16380" type="Const" version="opset1">
			<data element_type="f32" shape="" offset="939452" size="4" />
			<output>
				<port id="0" precision="FP32" />
			</output>
		</layer>
		<layer id="354" name="Constant_16381" type="Const" version="opset1">
			<data element_type="f32" shape="" offset="939456" size="4" />
			<output>
				<port id="0" precision="FP32" />
			</output>
		</layer>
		<layer id="355" name="/model.8/m.0/cv1/act/Mul/fq_output_0" type="FakeQuantize" version="opset1">
			<data levels="256" auto_broadcast="numpy" />
			<input>
				<port id="0" precision="FP32">
					<dim>1</dim>
					<dim>128</dim>
					<dim>20</dim>
					<dim>20</dim>
				</port>
				<port id="1" precision="FP32" />
				<port id="2" precision="FP32" />
				<port id="3" precision="FP32" />
				<port id="4" precision="FP32" />
			</input>
			<output>
				<port id="5" precision="FP32">
					<dim>1</dim>
					<dim>128</dim>
					<dim>20</dim>
					<dim>20</dim>
				</port>
			</output>
		</layer>
		<layer id="356" name="model.8.m.0.cv2.conv.weight" type="Const" version="opset1">
			<data element_type="i8" shape="128, 128, 3, 3" offset="939460" size="147456" />
			<output>
				<port id="0" precision="I8">
					<dim>128</dim>
					<dim>128</dim>
					<dim>3</dim>
					<dim>3</dim>
				</port>
			</output>
		</layer>
		<layer id="357" name="Convert_243782" type="Convert" version="opset1">
			<data destination_type="f32" />
			<input>
				<port id="0" precision="I8">
					<dim>128</dim>
					<dim>128</dim>
					<dim>3</dim>
					<dim>3</dim>
				</port>
			</input>
			<output>
				<port id="1" precision="FP32">
					<dim>128</dim>
					<dim>128</dim>
					<dim>3</dim>
					<dim>3</dim>
				</port>
			</output>
		</layer>
		<layer id="358" name="Constant_243680" type="Const" version="opset1">
			<data element_type="f32" shape="128, 1, 1, 1" offset="1086916" size="512" />
			<output>
				<port id="0" precision="FP32">
					<dim>128</dim>
					<dim>1</dim>
					<dim>1</dim>
					<dim>1</dim>
				</port>
			</output>
		</layer>
		<layer id="359" name="/model.8/m.0/cv2/conv/Conv/WithoutBiases/fq_weights_1" type="Multiply" version="opset1">
			<data auto_broadcast="numpy" />
			<input>
				<port id="0" precision="FP32">
					<dim>128</dim>
					<dim>128</dim>
					<dim>3</dim>
					<dim>3</dim>
				</port>
				<port id="1" precision="FP32">
					<dim>128</dim>
					<dim>1</dim>
					<dim>1</dim>
					<dim>1</dim>
				</port>
			</input>
			<output>
				<port id="2" precision="FP32">
					<dim>128</dim>
					<dim>128</dim>
					<dim>3</dim>
					<dim>3</dim>
				</port>
			</output>
		</layer>
		<layer id="360" name="/model.8/m.0/cv2/conv/Conv/WithoutBiases" type="Convolution" version="opset1">
			<data strides="1, 1" dilations="1, 1" pads_begin="1, 1" pads_end="1, 1" auto_pad="explicit" />
			<input>
				<port id="0" precision="FP32">
					<dim>1</dim>
					<dim>128</dim>
					<dim>20</dim>
					<dim>20</dim>
				</port>
				<port id="1" precision="FP32">
					<dim>128</dim>
					<dim>128</dim>
					<dim>3</dim>
					<dim>3</dim>
				</port>
			</input>
			<output>
				<port id="2" precision="FP32">
					<dim>1</dim>
					<dim>128</dim>
					<dim>20</dim>
					<dim>20</dim>
				</port>
			</output>
		</layer>
		<layer id="361" name="Reshape_551" type="Const" version="opset1">
			<data element_type="f32" shape="1, 128, 1, 1" offset="1087428" size="512" />
			<output>
				<port id="0" precision="FP32">
					<dim>1</dim>
					<dim>128</dim>
					<dim>1</dim>
					<dim>1</dim>
				</port>
			</output>
		</layer>
		<layer id="362" name="/model.8/m.0/cv2/conv/Conv" type="Add" version="opset1">
			<data auto_broadcast="numpy" />
			<input>
				<port id="0" precision="FP32">
					<dim>1</dim>
					<dim>128</dim>
					<dim>20</dim>
					<dim>20</dim>
				</port>
				<port id="1" precision="FP32">
					<dim>1</dim>
					<dim>128</dim>
					<dim>1</dim>
					<dim>1</dim>
				</port>
			</input>
			<output>
				<port id="2" precision="FP32" names="/model.8/m.0/cv2/conv/Conv_output_0">
					<dim>1</dim>
					<dim>128</dim>
					<dim>20</dim>
					<dim>20</dim>
				</port>
			</output>
		</layer>
		<layer id="363" name="/model.8/m.0/cv2/act/Mul" type="Swish" version="opset4">
			<input>
				<port id="0" precision="FP32">
					<dim>1</dim>
					<dim>128</dim>
					<dim>20</dim>
					<dim>20</dim>
				</port>
			</input>
			<output>
				<port id="1" precision="FP32" names="/model.8/m.0/cv2/act/Mul_output_0">
					<dim>1</dim>
					<dim>128</dim>
					<dim>20</dim>
					<dim>20</dim>
				</port>
			</output>
		</layer>
		<layer id="364" name="Constant_16388" type="Const" version="opset1">
			<data element_type="f32" shape="" offset="67812" size="4" />
			<output>
				<port id="0" precision="FP32" />
			</output>
		</layer>
		<layer id="365" name="Constant_16389" type="Const" version="opset1">
			<data element_type="f32" shape="" offset="1087940" size="4" />
			<output>
				<port id="0" precision="FP32" />
			</output>
		</layer>
		<layer id="366" name="Constant_16390" type="Const" version="opset1">
			<data element_type="f32" shape="" offset="67812" size="4" />
			<output>
				<port id="0" precision="FP32" />
			</output>
		</layer>
		<layer id="367" name="Constant_16391" type="Const" version="opset1">
			<data element_type="f32" shape="" offset="1087940" size="4" />
			<output>
				<port id="0" precision="FP32" />
			</output>
		</layer>
		<layer id="368" name="/model.8/m.0/cv2/act/Mul/fq_output_0" type="FakeQuantize" version="opset1">
			<data levels="256" auto_broadcast="numpy" />
			<input>
				<port id="0" precision="FP32">
					<dim>1</dim>
					<dim>128</dim>
					<dim>20</dim>
					<dim>20</dim>
				</port>
				<port id="1" precision="FP32" />
				<port id="2" precision="FP32" />
				<port id="3" precision="FP32" />
				<port id="4" precision="FP32" />
			</input>
			<output>
				<port id="5" precision="FP32">
					<dim>1</dim>
					<dim>128</dim>
					<dim>20</dim>
					<dim>20</dim>
				</port>
			</output>
		</layer>
		<layer id="369" name="/model.8/m.0/Add" type="Add" version="opset1">
			<data auto_broadcast="numpy" />
			<input>
				<port id="0" precision="FP32">
					<dim>1</dim>
					<dim>128</dim>
					<dim>20</dim>
					<dim>20</dim>
				</port>
				<port id="1" precision="FP32">
					<dim>1</dim>
					<dim>128</dim>
					<dim>20</dim>
					<dim>20</dim>
				</port>
			</input>
			<output>
				<port id="2" precision="FP32" names="/model.8/m.0/Add_output_0">
					<dim>1</dim>
					<dim>128</dim>
					<dim>20</dim>
					<dim>20</dim>
				</port>
			</output>
		</layer>
		<layer id="370" name="Constant_16108" type="Const" version="opset1">
			<data element_type="f32" shape="" offset="790948" size="4" />
			<output>
				<port id="0" precision="FP32" />
			</output>
		</layer>
		<layer id="371" name="Constant_16109" type="Const" version="opset1">
			<data element_type="f32" shape="" offset="790952" size="4" />
			<output>
				<port id="0" precision="FP32" />
			</output>
		</layer>
		<layer id="372" name="Constant_16110" type="Const" version="opset1">
			<data element_type="f32" shape="" offset="790948" size="4" />
			<output>
				<port id="0" precision="FP32" />
			</output>
		</layer>
		<layer id="373" name="Constant_16111" type="Const" version="opset1">
			<data element_type="f32" shape="" offset="790952" size="4" />
			<output>
				<port id="0" precision="FP32" />
			</output>
		</layer>
		<layer id="374" name="/model.8/m.0/Add/fq_output_0" type="FakeQuantize" version="opset1">
			<data levels="256" auto_broadcast="numpy" />
			<input>
				<port id="0" precision="FP32">
					<dim>1</dim>
					<dim>128</dim>
					<dim>20</dim>
					<dim>20</dim>
				</port>
				<port id="1" precision="FP32" />
				<port id="2" precision="FP32" />
				<port id="3" precision="FP32" />
				<port id="4" precision="FP32" />
			</input>
			<output>
				<port id="5" precision="FP32">
					<dim>1</dim>
					<dim>128</dim>
					<dim>20</dim>
					<dim>20</dim>
				</port>
			</output>
		</layer>
		<layer id="375" name="/model.8/Concat" type="Concat" version="opset1">
			<data axis="1" />
			<input>
				<port id="0" precision="FP32">
					<dim>1</dim>
					<dim>128</dim>
					<dim>20</dim>
					<dim>20</dim>
				</port>
				<port id="1" precision="FP32">
					<dim>1</dim>
					<dim>128</dim>
					<dim>20</dim>
					<dim>20</dim>
				</port>
				<port id="2" precision="FP32">
					<dim>1</dim>
					<dim>128</dim>
					<dim>20</dim>
					<dim>20</dim>
				</port>
			</input>
			<output>
				<port id="3" precision="FP32" names="/model.8/Concat_output_0">
					<dim>1</dim>
					<dim>384</dim>
					<dim>20</dim>
					<dim>20</dim>
				</port>
			</output>
		</layer>
		<layer id="376" name="model.8.cv2.conv.weight" type="Const" version="opset1">
			<data element_type="i8" shape="256, 384, 1, 1" offset="1087944" size="98304" />
			<output>
				<port id="0" precision="I8">
					<dim>256</dim>
					<dim>384</dim>
					<dim>1</dim>
					<dim>1</dim>
				</port>
			</output>
		</layer>
		<layer id="377" name="Convert_243936" type="Convert" version="opset1">
			<data destination_type="f32" />
			<input>
				<port id="0" precision="I8">
					<dim>256</dim>
					<dim>384</dim>
					<dim>1</dim>
					<dim>1</dim>
				</port>
			</input>
			<output>
				<port id="1" precision="FP32">
					<dim>256</dim>
					<dim>384</dim>
					<dim>1</dim>
					<dim>1</dim>
				</port>
			</output>
		</layer>
		<layer id="378" name="Constant_243834" type="Const" version="opset1">
			<data element_type="f32" shape="256, 1, 1, 1" offset="1186248" size="1024" />
			<output>
				<port id="0" precision="FP32">
					<dim>256</dim>
					<dim>1</dim>
					<dim>1</dim>
					<dim>1</dim>
				</port>
			</output>
		</layer>
		<layer id="379" name="/model.8/cv2/conv/Conv/WithoutBiases/fq_weights_1" type="Multiply" version="opset1">
			<data auto_broadcast="numpy" />
			<input>
				<port id="0" precision="FP32">
					<dim>256</dim>
					<dim>384</dim>
					<dim>1</dim>
					<dim>1</dim>
				</port>
				<port id="1" precision="FP32">
					<dim>256</dim>
					<dim>1</dim>
					<dim>1</dim>
					<dim>1</dim>
				</port>
			</input>
			<output>
				<port id="2" precision="FP32">
					<dim>256</dim>
					<dim>384</dim>
					<dim>1</dim>
					<dim>1</dim>
				</port>
			</output>
		</layer>
		<layer id="380" name="/model.8/cv2/conv/Conv/WithoutBiases" type="Convolution" version="opset1">
			<data strides="1, 1" dilations="1, 1" pads_begin="0, 0" pads_end="0, 0" auto_pad="explicit" />
			<input>
				<port id="0" precision="FP32">
					<dim>1</dim>
					<dim>384</dim>
					<dim>20</dim>
					<dim>20</dim>
				</port>
				<port id="1" precision="FP32">
					<dim>256</dim>
					<dim>384</dim>
					<dim>1</dim>
					<dim>1</dim>
				</port>
			</input>
			<output>
				<port id="2" precision="FP32">
					<dim>1</dim>
					<dim>256</dim>
					<dim>20</dim>
					<dim>20</dim>
				</port>
			</output>
		</layer>
		<layer id="381" name="Reshape_570" type="Const" version="opset1">
			<data element_type="f32" shape="1, 256, 1, 1" offset="1187272" size="1024" />
			<output>
				<port id="0" precision="FP32">
					<dim>1</dim>
					<dim>256</dim>
					<dim>1</dim>
					<dim>1</dim>
				</port>
			</output>
		</layer>
		<layer id="382" name="/model.8/cv2/conv/Conv" type="Add" version="opset1">
			<data auto_broadcast="numpy" />
			<input>
				<port id="0" precision="FP32">
					<dim>1</dim>
					<dim>256</dim>
					<dim>20</dim>
					<dim>20</dim>
				</port>
				<port id="1" precision="FP32">
					<dim>1</dim>
					<dim>256</dim>
					<dim>1</dim>
					<dim>1</dim>
				</port>
			</input>
			<output>
				<port id="2" precision="FP32" names="/model.8/cv2/conv/Conv_output_0">
					<dim>1</dim>
					<dim>256</dim>
					<dim>20</dim>
					<dim>20</dim>
				</port>
			</output>
		</layer>
		<layer id="383" name="/model.8/cv2/act/Mul" type="Swish" version="opset4">
			<input>
				<port id="0" precision="FP32">
					<dim>1</dim>
					<dim>256</dim>
					<dim>20</dim>
					<dim>20</dim>
				</port>
			</input>
			<output>
				<port id="1" precision="FP32" names="/model.8/cv2/act/Mul_output_0">
					<dim>1</dim>
					<dim>256</dim>
					<dim>20</dim>
					<dim>20</dim>
				</port>
			</output>
		</layer>
		<layer id="384" name="Constant_16398" type="Const" version="opset1">
			<data element_type="f32" shape="" offset="1188296" size="4" />
			<output>
				<port id="0" precision="FP32" />
			</output>
		</layer>
		<layer id="385" name="Constant_16399" type="Const" version="opset1">
			<data element_type="f32" shape="" offset="1188300" size="4" />
			<output>
				<port id="0" precision="FP32" />
			</output>
		</layer>
		<layer id="386" name="Constant_16400" type="Const" version="opset1">
			<data element_type="f32" shape="" offset="1188296" size="4" />
			<output>
				<port id="0" precision="FP32" />
			</output>
		</layer>
		<layer id="387" name="Constant_16401" type="Const" version="opset1">
			<data element_type="f32" shape="" offset="1188300" size="4" />
			<output>
				<port id="0" precision="FP32" />
			</output>
		</layer>
		<layer id="388" name="/model.8/cv2/act/Mul/fq_output_0" type="FakeQuantize" version="opset1">
			<data levels="256" auto_broadcast="numpy" />
			<input>
				<port id="0" precision="FP32">
					<dim>1</dim>
					<dim>256</dim>
					<dim>20</dim>
					<dim>20</dim>
				</port>
				<port id="1" precision="FP32" />
				<port id="2" precision="FP32" />
				<port id="3" precision="FP32" />
				<port id="4" precision="FP32" />
			</input>
			<output>
				<port id="5" precision="FP32">
					<dim>1</dim>
					<dim>256</dim>
					<dim>20</dim>
					<dim>20</dim>
				</port>
			</output>
		</layer>
		<layer id="389" name="model.9.cv1.conv.weight" type="Const" version="opset1">
			<data element_type="i8" shape="128, 256, 1, 1" offset="1188304" size="32768" />
			<output>
				<port id="0" precision="I8">
					<dim>128</dim>
					<dim>256</dim>
					<dim>1</dim>
					<dim>1</dim>
				</port>
			</output>
		</layer>
		<layer id="390" name="Convert_244090" type="Convert" version="opset1">
			<data destination_type="f32" />
			<input>
				<port id="0" precision="I8">
					<dim>128</dim>
					<dim>256</dim>
					<dim>1</dim>
					<dim>1</dim>
				</port>
			</input>
			<output>
				<port id="1" precision="FP32">
					<dim>128</dim>
					<dim>256</dim>
					<dim>1</dim>
					<dim>1</dim>
				</port>
			</output>
		</layer>
		<layer id="391" name="Constant_243988" type="Const" version="opset1">
			<data element_type="f32" shape="128, 1, 1, 1" offset="1221072" size="512" />
			<output>
				<port id="0" precision="FP32">
					<dim>128</dim>
					<dim>1</dim>
					<dim>1</dim>
					<dim>1</dim>
				</port>
			</output>
		</layer>
		<layer id="392" name="/model.9/cv1/conv/Conv/WithoutBiases/fq_weights_1" type="Multiply" version="opset1">
			<data auto_broadcast="numpy" />
			<input>
				<port id="0" precision="FP32">
					<dim>128</dim>
					<dim>256</dim>
					<dim>1</dim>
					<dim>1</dim>
				</port>
				<port id="1" precision="FP32">
					<dim>128</dim>
					<dim>1</dim>
					<dim>1</dim>
					<dim>1</dim>
				</port>
			</input>
			<output>
				<port id="2" precision="FP32">
					<dim>128</dim>
					<dim>256</dim>
					<dim>1</dim>
					<dim>1</dim>
				</port>
			</output>
		</layer>
		<layer id="393" name="/model.9/cv1/conv/Conv/WithoutBiases" type="Convolution" version="opset1">
			<data strides="1, 1" dilations="1, 1" pads_begin="0, 0" pads_end="0, 0" auto_pad="explicit" />
			<input>
				<port id="0" precision="FP32">
					<dim>1</dim>
					<dim>256</dim>
					<dim>20</dim>
					<dim>20</dim>
				</port>
				<port id="1" precision="FP32">
					<dim>128</dim>
					<dim>256</dim>
					<dim>1</dim>
					<dim>1</dim>
				</port>
			</input>
			<output>
				<port id="2" precision="FP32">
					<dim>1</dim>
					<dim>128</dim>
					<dim>20</dim>
					<dim>20</dim>
				</port>
			</output>
		</layer>
		<layer id="394" name="Reshape_587" type="Const" version="opset1">
			<data element_type="f32" shape="1, 128, 1, 1" offset="1221584" size="512" />
			<output>
				<port id="0" precision="FP32">
					<dim>1</dim>
…
		<edge from-layer="307" from-port="2" to-layer="308" to-port="0" />
		<edge from-layer="308" from-port="1" to-layer="313" to-port="0" />
		<edge from-layer="309" from-port="0" to-layer="313" to-port="1" />
		<edge from-layer="310" from-port="0" to-layer="313" to-port="2" />
		<edge from-layer="311" from-port="0" to-layer="313" to-port="3" />
		<edge from-layer="312" from-port="0" to-layer="313" to-port="4" />
		<edge from-layer="313" from-port="5" to-layer="318" to-port="0" />
		<edge from-layer="313" from-port="5" to-layer="426" to-port="1" />
		<edge from-layer="314" from-port="0" to-layer="315" to-port="0" />
		<edge from-layer="315" from-port="1" to-layer="317" to-port="0" />
		<edge from-layer="316" from-port="0" to-layer="317" to-port="1" />
		<edge from-layer="317" from-port="2" to-layer="318" to-port="1" />
		<edge from-layer="318" from-port="2" to-layer="320" to-port="0" />
		<edge from-layer="319" from-port="0" to-layer="320" to-port="1" />
		<edge from-layer="320" from-port="2" to-layer="321" to-port="0" />
		<edge from-layer="321" from-port="1" to-layer="326" to-port="0" />
		<edge from-layer="322" from-port="0" to-layer="326" to-port="1" />
		<edge from-layer="323" from-port="0" to-layer="326" to-port="2" />
		<edge from-layer="324" from-port="0" to-layer="326" to-port="3" />
		<edge from-layer="325" from-port="0" to-layer="326" to-port="4" />
		<edge from-layer="326" from-port="5" to-layer="331" to-port="0" />
		<edge from-layer="327" from-port="0" to-layer="328" to-port="0" />
		<edge from-layer="328" from-port="1" to-layer="330" to-port="0" />
		<edge from-layer="329" from-port="0" to-layer="330" to-port="1" />
		<edge from-layer="330" from-port="2" to-layer="331" to-port="1" />
		<edge from-layer="331" from-port="2" to-layer="333" to-port="0" />
		<edge from-layer="332" from-port="0" to-layer="333" to-port="1" />
		<edge from-layer="333" from-port="2" to-layer="334" to-port="0" />
		<edge from-layer="334" from-port="1" to-layer="339" to-port="0" />
		<edge from-layer="335" from-port="0" to-layer="339" to-port="1" />
		<edge from-layer="336" from-port="0" to-layer="339" to-port="2" />
		<edge from-layer="337" from-port="0" to-layer="339" to-port="3" />
		<edge from-layer="338" from-port="0" to-layer="339" to-port="4" />
		<edge from-layer="339" from-port="5" to-layer="342" to-port="0" />
		<edge from-layer="340" from-port="0" to-layer="342" to-port="1" />
		<edge from-layer="341" from-port="0" to-layer="342" to-port="2" />
		<edge from-layer="341" from-port="0" to-layer="780" to-port="2" />
		<edge from-layer="342" from-port="4" to-layer="375" to-port="1" />
		<edge from-layer="342" from-port="3" to-layer="375" to-port="0" />
		<edge from-layer="342" from-port="4" to-layer="369" to-port="0" />
		<edge from-layer="342" from-port="4" to-layer="347" to-port="0" />
		<edge from-layer="343" from-port="0" to-layer="344" to-port="0" />
		<edge from-layer="344" from-port="1" to-layer="346" to-port="0" />
		<edge from-layer="345" from-port="0" to-layer="346" to-port="1" />
		<edge from-layer="346" from-port="2" to-layer="347" to-port="1" />
		<edge from-layer="347" from-port="2" to-layer="349" to-port="0" />
		<edge from-layer="348" from-port="0" to-layer="349" to-port="1" />
		<edge from-layer="349" from-port="2" to-layer="350" to-port="0" />
		<edge from-layer="350" from-port="1" to-layer="355" to-port="0" />
		<edge from-layer="351" from-port="0" to-layer="355" to-port="1" />
		<edge from-layer="352" from-port="0" to-layer="355" to-port="2" />
		<edge from-layer="353" from-port="0" to-layer="355" to-port="3" />
		<edge from-layer="354" from-port="0" to-layer="355" to-port="4" />
		<edge from-layer="355" from-port="5" to-layer="360" to-port="0" />
		<edge from-layer="356" from-port="0" to-layer="357" to-port="0" />
		<edge from-layer="357" from-port="1" to-layer="359" to-port="0" />
		<edge from-layer="358" from-port="0" to-layer="359" to-port="1" />
		<edge from-layer="359" from-port="2" to-layer="360" to-port="1" />
		<edge from-layer="360" from-port="2" to-layer="362" to-port="0" />
		<edge from-layer="361" from-port="0" to-layer="362" to-port="1" />
		<edge from-layer="362" from-port="2" to-layer="363" to-port="0" />
		<edge from-layer="363" from-port="1" to-layer="368" to-port="0" />
		<edge from-layer="364" from-port="0" to-layer="368" to-port="1" />
		<edge from-layer="365" from-port="0" to-layer="368" to-port="2" />
		<edge from-layer="366" from-port="0" to-layer="368" to-port="3" />
		<edge from-layer="367" from-port="0" to-layer="368" to-port="4" />
		<edge from-layer="368" from-port="5" to-layer="369" to-port="1" />
		<edge from-layer="369" from-port="2" to-layer="374" to-port="0" />
		<edge from-layer="370" from-port="0" to-layer="374" to-port="1" />
		<edge from-layer="371" from-port="0" to-layer="374" to-port="2" />
		<edge from-layer="372" from-port="0" to-layer="374" to-port="3" />
		<edge from-layer="373" from-port="0" to-layer="374" to-port="4" />
		<edge from-layer="374" from-port="5" to-layer="375" to-port="2" />
		<edge from-layer="375" from-port="3" to-layer="380" to-port="0" />
		<edge from-layer="376" from-port="0" to-layer="377" to-port="0" />
		<edge from-layer="377" from-port="1" to-layer="379" to-port="0" />
		<edge from-layer="378" from-port="0" to-layer="379" to-port="1" />
		<edge from-layer="379" from-port="2" to-layer="380" to-port="1" />
		<edge from-layer="380" from-port="2" to-layer="382" to-port="0" />
		<edge from-layer="381" from-port="0" to-layer="382" to-port="1" />
		<edge from-layer="382" from-port="2" to-layer="383" to-port="0" />
		<edge from-layer="383" from-port="1" to-layer="388" to-port="0" />
		<edge from-layer="384" from-port="0" to-layer="388" to-port="1" />
		<edge from-layer="385" from-port="0" to-layer="388" to-port="2" />
		<edge from-layer="386" from-port="0" to-layer="388" to-port="3" />
		<edge from-layer="387" from-port="0" to-layer="388" to-port="4" />
		<edge from-layer="388" from-port="5" to-layer="393" to-port="0" />
		<edge from-layer="389" from-port="0" to-layer="390" to-port="0" />
		<edge from-layer="390" from-port="1" to-layer="392" to-port="0" />
		<edge from-layer="391" from-port="0" to-layer="392" to-port="1" />
		<edge from-layer="392" from-port="2" to-layer="393" to-port="1" />
		<edge from-layer="393" from-port="2" to-layer="395" to-port="0" />
		<edge from-layer="394" from-port="0" to-layer="395" to-port="1" />
		<edge from-layer="395" from-port="2" to-layer="396" to-port="0" />
		<edge from-layer="396" from-port="1" to-layer="401" to-port="0" />
		<edge from-layer="397" from-port="0" to-layer="401" to-port="1" />
		<edge from-layer="398" from-port="0" to-layer="401" to-port="2" />
		<edge from-layer="399" from-port="0" to-layer="401" to-port="3" />
		<edge from-layer="400" from-port="0" to-layer="401" to-port="4" />
		<edge from-layer="401" from-port="5" to-layer="402" to-port="0" />
		<edge from-layer="401" from-port="5" to-layer="405" to-port="0" />
		<edge from-layer="402" from-port="1" to-layer="403" to-port="0" />
		<edge from-layer="402" from-port="1" to-layer="405" to-port="1" />
		<edge from-layer="403" from-port="1" to-layer="405" to-port="2" />
		<edge from-layer="403" from-port="1" to-layer="404" to-port="0" />
		<edge from-layer="404" from-port="1" to-layer="405" to-port="3" />
		<edge from-layer="405" from-port="4" to-layer="410" to-port="0" />
		<edge from-layer="406" from-port="0" to-layer="407" to-port="0" />
		<edge from-layer="407" from-port="1" to-layer="409" to-port="0" />
		<edge from-layer="408" from-port="0" to-layer="409" to-port="1" />
		<edge from-layer="409" from-port="2" to-layer="410" to-port="1" />
		<edge from-layer="410" from-port="2" to-layer="412" to-port="0" />
		<edge from-layer="411" from-port="0" to-layer="412" to-port="1" />
		<edge from-layer="412" from-port="2" to-layer="413" to-port="0" />
		<edge from-layer="413" from-port="1" to-layer="418" to-port="0" />
		<edge from-layer="414" from-port="0" to-layer="418" to-port="1" />
		<edge from-layer="415" from-port="0" to-layer="418" to-port="2" />
		<edge from-layer="416" from-port="0" to-layer="418" to-port="3" />
		<edge from-layer="417" from-port="0" to-layer="418" to-port="4" />
		<edge from-layer="418" from-port="5" to-layer="420" to-port="0" />
		<edge from-layer="418" from-port="5" to-layer="765" to-port="1" />
		<edge from-layer="419" from-port="0" to-layer="420" to-port="1" />
		<edge from-layer="420" from-port="2" to-layer="425" to-port="0" />
		<edge from-layer="421" from-port="0" to-layer="425" to-port="1" />
		<edge from-layer="422" from-port="0" to-layer="425" to-port="2" />
		<edge from-layer="423" from-port="0" to-layer="425" to-port="3" />
		<edge from-layer="424" from-port="0" to-layer="425" to-port="4" />
		<edge from-layer="425" from-port="5" to-layer="426" to-port="0" />
		<edge from-layer="426" from-port="2" to-layer="431" to-port="0" />
		<edge from-layer="427" from-port="0" to-layer="428" to-port="0" />
		<edge from-layer="428" from-port="1" to-layer="430" to-port="0" />
		<edge from-layer="429" from-port="0" to-layer="430" to-port="1" />
		<edge from-layer="430" from-port="2" to-layer="431" to-port="1" />
		<edge from-layer="431" from-port="2" to-layer="433" to-port="0" />
		<edge from-layer="432" from-port="0" to-layer="433" to-port="1" />
		<edge from-layer="433" from-port="2" to-layer="434" to-port="0" />
		<edge from-layer="434" from-port="1" to-layer="439" to-port="0" />
		<edge from-layer="435" from-port="0" to-layer="439" to-port="1" />
		<edge from-layer="436" from-port="0" to-layer="439" to-port="2" />
		<edge from-layer="437" from-port="0" to-layer="439" to-port="3" />
		<edge from-layer="438" from-port="0" to-layer="439" to-port="4" />
		<edge from-layer="439" from-port="5" to-layer="441" to-port="0" />
		<edge from-layer="440" from-port="0" to-layer="441" to-port="1" />
		<edge from-layer="441" from-port="4" to-layer="468" to-port="1" />
		<edge from-layer="441" from-port="3" to-layer="468" to-port="0" />
		<edge from-layer="441" from-port="4" to-layer="446" to-port="0" />
		<edge from-layer="442" from-port="0" to-layer="443" to-port="0" />
		<edge from-layer="443" from-port="1" to-layer="445" to-port="0" />
		<edge from-layer="444" from-port="0" to-layer="445" to-port="1" />
		<edge from-layer="445" from-port="2" to-layer="446" to-port="1" />
		<edge from-layer="446" from-port="2" to-layer="448" to-port="0" />
		<edge from-layer="447" from-port="0" to-layer="448" to-port="1" />
		<edge from-layer="448" from-port="2" to-layer="449" to-port="0" />
		<edge from-layer="449" from-port="1" to-layer="454" to-port="0" />
		<edge from-layer="450" from-port="0" to-layer="454" to-port="1" />
		<edge from-layer="451" from-port="0" to-layer="454" to-port="2" />
		<edge from-layer="452" from-port="0" to-layer="454" to-port="3" />
		<edge from-layer="453" from-port="0" to-layer="454" to-port="4" />
		<edge from-layer="454" from-port="5" to-layer="459" to-port="0" />
		<edge from-layer="455" from-port="0" to-layer="456" to-port="0" />
		<edge from-layer="456" from-port="1" to-layer="458" to-port="0" />
		<edge from-layer="457" from-port="0" to-layer="458" to-port="1" />
		<edge from-layer="458" from-port="2" to-layer="459" to-port="1" />
		<edge from-layer="459" from-port="2" to-layer="461" to-port="0" />
		<edge from-layer="460" from-port="0" to-layer="461" to-port="1" />
		<edge from-layer="461" from-port="2" to-layer="462" to-port="0" />
		<edge from-layer="462" from-port="1" to-layer="467" to-port="0" />
		<edge from-layer="463" from-port="0" to-layer="467" to-port="1" />
		<edge from-layer="464" from-port="0" to-layer="467" to-port="2" />
		<edge from-layer="465" from-port="0" to-layer="467" to-port="3" />
		<edge from-layer="466" from-port="0" to-layer="467" to-port="4" />
		<edge from-layer="467" from-port="5" to-layer="468" to-port="2" />
		<edge from-layer="468" from-port="3" to-layer="473" to-port="0" />
		<edge from-layer="469" from-port="0" to-layer="470" to-port="0" />
		<edge from-layer="470" from-port="1" to-layer="472" to-port="0" />
		<edge from-layer="471" from-port="0" to-layer="472" to-port="1" />
		<edge from-layer="472" from-port="2" to-layer="473" to-port="1" />
		<edge from-layer="473" from-port="2" to-layer="475" to-port="0" />
		<edge from-layer="474" from-port="0" to-layer="475" to-port="1" />
		<edge from-layer="475" from-port="2" to-layer="476" to-port="0" />
		<edge from-layer="476" from-port="1" to-layer="481" to-port="0" />
		<edge from-layer="477" from-port="0" to-layer="481" to-port="1" />
		<edge from-layer="478" from-port="0" to-layer="481" to-port="2" />
		<edge from-layer="479" from-port="0" to-layer="481" to-port="3" />
		<edge from-layer="480" from-port="0" to-layer="481" to-port="4" />
		<edge from-layer="481" from-port="5" to-layer="483" to-port="0" />
		<edge from-layer="481" from-port="5" to-layer="627" to-port="1" />
		<edge from-layer="482" from-port="0" to-layer="483" to-port="1" />
		<edge from-layer="483" from-port="2" to-layer="488" to-port="0" />
		<edge from-layer="484" from-port="0" to-layer="488" to-port="1" />
		<edge from-layer="485" from-port="0" to-layer="488" to-port="2" />
		<edge from-layer="486" from-port="0" to-layer="488" to-port="3" />
		<edge from-layer="487" from-port="0" to-layer="488" to-port="4" />
		<edge from-layer="488" from-port="5" to-layer="489" to-port="0" />
		<edge from-layer="489" from-port="2" to-layer="494" to-port="0" />
		<edge from-layer="490" from-port="0" to-layer="491" to-port="0" />
		<edge from-layer="491" from-port="1" to-layer="493" to-port="0" />
		<edge from-layer="492" from-port="0" to-layer="493" to-port="1" />
		<edge from-layer="493" from-port="2" to-layer="494" to-port="1" />
		<edge from-layer="494" from-port="2" to-layer="496" to-port="0" />
		<edge from-layer="495" from-port="0" to-layer="496" to-port="1" />
		<edge from-layer="496" from-port="2" to-layer="497" to-port="0" />
		<edge from-layer="497" from-port="1" to-layer="502" to-port="0" />
		<edge from-layer="498" from-port="0" to-layer="502" to-port="1" />
		<edge from-layer="499" from-port="0" to-layer="502" to-port="2" />
		<edge from-layer="500" from-port="0" to-layer="502" to-port="3" />
		<edge from-layer="501" from-port="0" to-layer="502" to-port="4" />
		<edge from-layer="502" from-port="5" to-layer="504" to-port="0" />
		<edge from-layer="503" from-port="0" to-layer="504" to-port="1" />
		<edge from-layer="504" from-port="4" to-layer="509" to-port="0" />
		<edge from-layer="504" from-port="4" to-layer="531" to-port="1" />
		<edge from-layer="504" from-port="3" to-layer="531" to-port="0" />
		<edge from-layer="505" from-port="0" to-layer="506" to-port="0" />
		<edge from-layer="506" from-port="1" to-layer="508" to-port="0" />
		<edge from-layer="507" from-port="0" to-layer="508" to-port="1" />
		<edge from-layer="508" from-port="2" to-layer="509" to-port="1" />
		<edge from-layer="509" from-port="2" to-layer="511" to-port="0" />
		<edge from-layer="510" from-port="0" to-layer="511" to-port="1" />
		<edge from-layer="511" from-port="2" to-layer="512" to-port="0" />
		<edge from-layer="512" from-port="1" to-layer="517" to-port="0" />
		<edge from-layer="513" from-port="0" to-layer="517" to-port="1" />
		<edge from-layer="514" from-port="0" to-layer="517" to-port="2" />
		<edge from-layer="515" from-port="0" to-layer="517" to-port="3" />
		<edge from-layer="516" from-port="0" to-layer="517" to-port="4" />
		<edge from-layer="517" from-port="5" to-layer="522" to-port="0" />
		<edge from-layer="518" from-port="0" to-layer="519" to-port="0" />
		<edge from-layer="519" from-port="1" to-layer="521" to-port="0" />
		<edge from-layer="520" from-port="0" to-layer="521" to-port="1" />
		<edge from-layer="521" from-port="2" to-layer="522" to-port="1" />
		<edge from-layer="522" from-port="2" to-layer="524" to-port="0" />
		<edge from-layer="523" from-port="0" to-layer="524" to-port="1" />
		<edge from-layer="524" from-port="2" to-layer="525" to-port="0" />
		<edge from-layer="525" from-port="1" to-layer="530" to-port="0" />
		<edge from-layer="526" from-port="0" to-layer="530" to-port="1" />
		<edge from-layer="527" from-port="0" to-layer="530" to-port="2" />
		<edge from-layer="528" from-port="0" to-layer="530" to-port="3" />
		<edge from-layer="529" from-port="0" to-layer="530" to-port="4" />
		<edge from-layer="530" from-port="5" to-layer="531" to-port="2" />
		<edge from-layer="531" from-port="3" to-layer="536" to-port="0" />
		<edge from-layer="532" from-port="0" to-layer="533" to-port="0" />
		<edge from-layer="533" from-port="1" to-layer="535" to-port="0" />
		<edge from-layer="534" from-port="0" to-layer="535" to-port="1" />
		<edge from-layer="535" from-port="2" to-layer="536" to-port="1" />
		<edge from-layer="536" from-port="2" to-layer="538" to-port="0" />
		<edge from-layer="537" from-port="0" to-layer="538" to-port="1" />
		<edge from-layer="538" from-port="2" to-layer="539" to-port="0" />
		<edge from-layer="539" from-port="1" to-layer="544" to-port="0" />
		<edge from-layer="540" from-port="0" to-layer="544" to-port="1" />
		<edge from-layer="541" from-port="0" to-layer="544" to-port="2" />
		<edge from-layer="542" from-port="0" to-layer="544" to-port="3" />
		<edge from-layer="543" from-port="0" to-layer="544" to-port="4" />
		<edge from-layer="544" from-port="5" to-layer="549" to-port="0" />
		<edge from-layer="544" from-port="5" to-layer="582" to-port="0" />
		<edge from-layer="544" from-port="5" to-layer="618" to-port="0" />
		<edge from-layer="545" from-port="0" to-layer="546" to-port="0" />
		<edge from-layer="546" from-port="1" to-layer="548" to-port="0" />
		<edge from-layer="547" from-port="0" to-layer="548" to-port="1" />
		<edge from-layer="548" from-port="2" to-layer="549" to-port="1" />
		<edge from-layer="549" from-port="2" to-layer="551" to-port="0" />
		<edge from-layer="550" from-port="0" to-layer="551" to-port="1" />
		<edge from-layer="551" from-port="2" to-layer="552" to-port="0" />
		<edge from-layer="552" from-port="1" to-layer="557" to-port="0" />
		<edge from-layer="553" from-port="0" to-layer="557" to-port="1" />
		<edge from-layer="554" from-port="0" to-layer="557" to-port="2" />
		<edge from-layer="555" from-port="0" to-layer="557" to-port="3" />
		<edge from-layer="556" from-port="0" to-layer="557" to-port="4" />
		<edge from-layer="557" from-port="5" to-layer="562" to-port="0" />
		<edge from-layer="558" from-port="0" to-layer="559" to-port="0" />
		<edge from-layer="559" from-port="1" to-layer="561" to-port="0" />
		<edge from-layer="560" from-port="0" to-layer="561" to-port="1" />
		<edge from-layer="561" from-port="2" to-layer="562" to-port="1" />
		<edge from-layer="562" from-port="2" to-layer="564" to-port="0" />
		<edge from-layer="563" from-port="0" to-layer="564" to-port="1" />
		<edge from-layer="564" from-port="2" to-layer="565" to-port="0" />
		<edge from-layer="565" from-port="1" to-layer="570" to-port="0" />
		<edge from-layer="566" from-port="0" to-layer="570" to-port="1" />
		<edge from-layer="567" from-port="0" to-layer="570" to-port="2" />
		<edge from-layer="568" from-port="0" to-layer="570" to-port="3" />
		<edge from-layer="569" from-port="0" to-layer="570" to-port="4" />
		<edge from-layer="570" from-port="5" to-layer="575" to-port="0" />
		<edge from-layer="571" from-port="0" to-layer="572" to-port="0" />
		<edge from-layer="572" from-port="1" to-layer="574" to-port="0" />
		<edge from-layer="573" from-port="0" to-layer="574" to-port="1" />
		<edge from-layer="574" from-port="2" to-layer="575" to-port="1" />
		<edge from-layer="575" from-port="2" to-layer="577" to-port="0" />
		<edge from-layer="576" from-port="0" to-layer="577" to-port="1" />
		<edge from-layer="577" from-port="2" to-layer="611" to-port="0" />
		<edge from-layer="578" from-port="0" to-layer="579" to-port="0" />
		<edge from-layer="579" from-port="1" to-layer="581" to-port="0" />
		<edge from-layer="580" from-port="0" to-layer="581" to-port="1" />
		<edge from-layer="581" from-port="2" to-layer="582" to-port="1" />
		<edge from-layer="582" from-port="2" to-layer="584" to-port="0" />
		<edge from-layer="583" from-port="0" to-layer="584" to-port="1" />
		<edge from-layer="584" from-port="2" to-layer="585" to-port="0" />
		<edge from-layer="585" from-port="1" to-layer="590" to-port="0" />
		<edge from-layer="586" from-port="0" to-layer="590" to-port="1" />
		<edge from-layer="587" from-port="0" to-layer="590" to-port="2" />
		<edge from-layer="588" from-port="0" to-layer="590" to-port="3" />
		<edge from-layer="589" from-port="0" to-layer="590" to-port="4" />
		<edge from-layer="590" from-port="5" to-layer="595" to-port="0" />
		<edge from-layer="591" from-port="0" to-layer="592" to-port="0" />
		<edge from-layer="592" from-port="1" to-layer="594" to-port="0" />
		<edge from-layer="593" from-port="0" to-layer="594" to-port="1" />
		<edge from-layer="594" from-port="2" to-layer="595" to-port="1" />
		<edge from-layer="595" from-port="2" to-layer="597" to-port="0" />
		<edge from-layer="596" from-port="0" to-layer="597" to-port="1" />
		<edge from-layer="597" from-port="2" to-layer="598" to-port="0" />
		<edge from-layer="598" from-port="1" to-layer="603" to-port="0" />
		<edge from-layer="599" from-port="0" to-layer="603" to-port="1" />
		<edge from-layer="600" from-port="0" to-layer="603" to-port="2" />
		<edge from-layer="601" from-port="0" to-layer="603" to-port="3" />
		<edge from-layer="602" from-port="0" to-layer="603" to-port="4" />
		<edge from-layer="603" from-port="5" to-layer="608" to-port="0" />
		<edge from-layer="604" from-port="0" to-layer="605" to-port="0" />
		<edge from-layer="605" from-port="1" to-layer="607" to-port="0" />
		<edge from-layer="606" from-port="0" to-layer="607" to-port="1" />
		<edge from-layer="607" from-port="2" to-layer="608" to-port="1" />
		<edge from-layer="608" from-port="2" to-layer="610" to-port="0" />
		<edge from-layer="609" from-port="0" to-layer="610" to-port="1" />
		<edge from-layer="610" from-port="2" to-layer="611" to-port="1" />
		<edge from-layer="611" from-port="2" to-layer="613" to-port="0" />
		<edge from-layer="612" from-port="0" to-layer="613" to-port="1" />
		<edge from-layer="613" from-port="2" to-layer="890" to-port="0" />
		<edge from-layer="614" from-port="0" to-layer="615" to-port="0" />
		<edge from-layer="615" from-port="1" to-layer="617" to-port="0" />
		<edge from-layer="616" from-port="0" to-layer="617" to-port="1" />
		<edge from-layer="617" from-port="2" to-layer="618" to-port="1" />
		<edge from-layer="618" from-port="2" to-layer="620" to-port="0" />
		<edge from-layer="619" from-port="0" to-layer="620" to-port="1" />
		<edge from-layer="620" from-port="2" to-layer="621" to-port="0" />
		<edge from-layer="621" from-port="1" to-layer="626" to-port="0" />
		<edge from-layer="622" from-port="0" to-layer="626" to-port="1" />
		<edge from-layer="623" from-port="0" to-layer="626" to-port="2" />
		<edge from-layer="624" from-port="0" to-layer="626" to-port="3" />
		<edge from-layer="625" from-port="0" to-layer="626" to-port="4" />
		<edge from-layer="626" from-port="5" to-layer="627" to-port="0" />
		<edge from-layer="627" from-port="2" to-layer="632" to-port="0" />
		<edge from-layer="628" from-port="0" to-layer="629" to-port="0" />
		<edge from-layer="629" from-port="1" to-layer="631" to-port="0" />
		<edge from-layer="630" from-port="0" to-layer="631" to-port="1" />
		<edge from-layer="631" from-port="2" to-layer="632" to-port="1" />
		<edge from-layer="632" from-port="2" to-layer="634" to-port="0" />
		<edge from-layer="633" from-port="0" to-layer="634" to-port="1" />
		<edge from-layer="634" from-port="2" to-layer="635" to-port="0" />
		<edge from-layer="635" from-port="1" to-layer="640" to-port="0" />
		<edge from-layer="636" from-port="0" to-layer="640" to-port="1" />
		<edge from-layer="637" from-port="0" to-layer="640" to-port="2" />
		<edge from-layer="638" from-port="0" to-layer="640" to-port="3" />
		<edge from-layer="639" from-port="0" to-layer="640" to-port="4" />
		<edge from-layer="640" from-port="5" to-layer="642" to-port="0" />
		<edge from-layer="641" from-port="0" to-layer="642" to-port="1" />
		<edge from-layer="642" from-port="4" to-layer="669" to-port="1" />
		<edge from-layer="642" from-port="3" to-layer="669" to-port="0" />
		<edge from-layer="642" from-port="4" to-layer="647" to-port="0" />
		<edge from-layer="643" from-port="0" to-layer="644" to-port="0" />
		<edge from-layer="644" from-port="1" to-layer="646" to-port="0" />
		<edge from-layer="645" from-port="0" to-layer="646" to-port="1" />
		<edge from-layer="646" from-port="2" to-layer="647" to-port="1" />
		<edge from-layer="647" from-port="2" to-layer="649" to-port="0" />
		<edge from-layer="648" from-port="0" to-layer="649" to-port="1" />
		<edge from-layer="649" from-port="2" to-layer="650" to-port="0" />
		<edge from-layer="650" from-port="1" to-layer="655" to-port="0" />
		<edge from-layer="651" from-port="0" to-layer="655" to-port="1" />
		<edge from-layer="652" from-port="0" to-layer="655" to-port="2" />
		<edge from-layer="653" from-port="0" to-layer="655" to-port="3" />
		<edge from-layer="654" from-port="0" to-layer="655" to-port="4" />
		<edge from-layer="655" from-port="5" to-layer="660" to-port="0" />
		<edge from-layer="656" from-port="0" to-layer="657" to-port="0" />
		<edge from-layer="657" from-port="1" to-layer="659" to-port="0" />
		<edge from-layer="658" from-port="0" to-layer="659" to-port="1" />
		<edge from-layer="659" from-port="2" to-layer="660" to-port="1" />
		<edge from-layer="660" from-port="2" to-layer="662" to-port="0" />
		<edge from-layer="661" from-port="0" to-layer="662" to-port="1" />
		<edge from-layer="662" from-port="2" to-layer="663" to-port="0" />
		<edge from-layer="663" from-port="1" to-layer="668" to-port="0" />
		<edge from-layer="664" from-port="0" to-layer="668" to-port="1" />
		<edge from-layer="665" from-port="0" to-layer="668" to-port="2" />
		<edge from-layer="666" from-port="0" to-layer="668" to-port="3" />
		<edge from-layer="667" from-port="0" to-layer="668" to-port="4" />
		<edge from-layer="668" from-port="5" to-layer="669" to-port="2" />
		<edge from-layer="669" from-port="3" to-layer="674" to-port="0" />
		<edge from-layer="670" from-port="0" to-layer="671" to-port="0" />
		<edge from-layer="671" from-port="1" to-layer="673" to-port="0" />
		<edge from-layer="672" from-port="0" to-layer="673" to-port="1" />
		<edge from-layer="673" from-port="2" to-layer="674" to-port="1" />
		<edge from-layer="674" from-port="2" to-layer="676" to-port="0" />
		<edge from-layer="675" from-port="0" to-layer="676" to-port="1" />
		<edge from-layer="676" from-port="2" to-layer="677" to-port="0" />
		<edge from-layer="677" from-port="1" to-layer="682" to-port="0" />
		<edge from-layer="678" from-port="0" to-layer="682" to-port="1" />
		<edge from-layer="679" from-port="0" to-layer="682" to-port="2" />
		<edge from-layer="680" from-port="0" to-layer="682" to-port="3" />
		<edge from-layer="681" from-port="0" to-layer="682" to-port="4" />
		<edge from-layer="682" from-port="5" to-layer="756" to-port="0" />
		<edge from-layer="682" from-port="5" to-layer="720" to-port="0" />
		<edge from-layer="682" from-port="5" to-layer="687" to-port="0" />
		<edge from-layer="683" from-port="0" to-layer="684" to-port="0" />
		<edge from-layer="684" from-port="1" to-layer="686" to-port="0" />
		<edge from-layer="685" from-port="0" to-layer="686" to-port="1" />
		<edge from-layer="686" from-port="2" to-layer="687" to-port="1" />
		<edge from-layer="687" from-port="2" to-layer="689" to-port="0" />
		<edge from-layer="688" from-port="0" to-layer="689" to-port="1" />
		<edge from-layer="689" from-port="2" to-layer="690" to-port="0" />
		<edge from-layer="690" from-port="1" to-layer="695" to-port="0" />
		<edge from-layer="691" from-port="0" to-layer="695" to-port="1" />
		<edge from-layer="692" from-port="0" to-layer="695" to-port="2" />
		<edge from-layer="693" from-port="0" to-layer="695" to-port="3" />
		<edge from-layer="694" from-port="0" to-layer="695" to-port="4" />
		<edge from-layer="695" from-port="5" to-layer="700" to-port="0" />
		<edge from-layer="696" from-port="0" to-layer="697" to-port="0" />
		<edge from-layer="697" from-port="1" to-layer="699" to-port="0" />
		<edge from-layer="698" from-port="0" to-layer="699" to-port="1" />
		<edge from-layer="699" from-port="2" to-layer="700" to-port="1" />
		<edge from-layer="700" from-port="2" to-layer="702" to-port="0" />
		<edge from-layer="701" from-port="0" to-layer="702" to-port="1" />
		<edge from-layer="702" from-port="2" to-layer="703" to-port="0" />
		<edge from-layer="703" from-port="1" to-layer="708" to-port="0" />
		<edge from-layer="704" from-port="0" to-layer="708" to-port="1" />
		<edge from-layer="705" from-port="0" to-layer="708" to-port="2" />
		<edge from-layer="706" from-port="0" to-layer="708" to-port="3" />
		<edge from-layer="707" from-port="0" to-layer="708" to-port="4" />
		<edge from-layer="708" from-port="5" to-layer="713" to-port="0" />
		<edge from-layer="709" from-port="0" to-layer="710" to-port="0" />
		<edge from-layer="710" from-port="1" to-layer="712" to-port="0" />
		<edge from-layer="711" from-port="0" to-layer="712" to-port="1" />
		<edge from-layer="712" from-port="2" to-layer="713" to-port="1" />
		<edge from-layer="713" from-port="2" to-layer="715" to-port="0" />
		<edge from-layer="714" from-port="0" to-layer="715" to-port="1" />
		<edge from-layer="715" from-port="2" to-layer="749" to-port="0" />
		<edge from-layer="716" from-port="0" to-layer="717" to-port="0" />
		<edge from-layer="717" from-port="1" to-layer="719" to-port="0" />
		<edge from-layer="718" from-port="0" to-layer="719" to-port="1" />
		<edge from-layer="719" from-port="2" to-layer="720" to-port="1" />
		<edge from-layer="720" from-port="2" to-layer="722" to-port="0" />
		<edge from-layer="721" from-port="0" to-layer="722" to-port="1" />
		<edge from-layer="722" from-port="2" to-layer="723" to-port="0" />
		<edge from-layer="723" from-port="1" to-layer="728" to-port="0" />
		<edge from-layer="724" from-port="0" to-layer="728" to-port="1" />
		<edge from-layer="725" from-port="0" to-layer="728" to-port="2" />
		<edge from-layer="726" from-port="0" to-layer="728" to-port="3" />
		<edge from-layer="727" from-port="0" to-layer="728" to-port="4" />
		<edge from-layer="728" from-port="5" to-layer="733" to-port="0" />
		<edge from-layer="729" from-port="0" to-layer="730" to-port="0" />
		<edge from-layer="730" from-port="1" to-layer="732" to-port="0" />
		<edge from-layer="731" from-port="0" to-layer="732" to-port="1" />
		<edge from-layer="732" from-port="2" to-layer="733" to-port="1" />
		<edge from-layer="733" from-port="2" to-layer="735" to-port="0" />
		<edge from-layer="734" from-port="0" to-layer="735" to-port="1" />
		<edge from-layer="735" from-port="2" to-layer="736" to-port="0" />
		<edge from-layer="736" from-port="1" to-layer="741" to-port="0" />
		<edge from-layer="737" from-port="0" to-layer="741" to-port="1" />
		<edge from-layer="738" from-port="0" to-layer="741" to-port="2" />
		<edge from-layer="739" from-port="0" to-layer="741" to-port="3" />
		<edge from-layer="740" from-port="0" to-layer="741" to-port="4" />
		<edge from-layer="741" from-port="5" to-layer="746" to-port="0" />
		<edge from-layer="742" from-port="0" to-layer="743" to-port="0" />
		<edge from-layer="743" from-port="1" to-layer="745" to-port="0" />
		<edge from-layer="744" from-port="0" to-layer="745" to-port="1" />
		<edge from-layer="745" from-port="2" to-layer="746" to-port="1" />
		<edge from-layer="746" from-port="2" to-layer="748" to-port="0" />
		<edge from-layer="747" from-port="0" to-layer="748" to-port="1" />
		<edge from-layer="748" from-port="2" to-layer="749" to-port="1" />
		<edge from-layer="749" from-port="2" to-layer="751" to-port="0" />
		<edge from-layer="750" from-port="0" to-layer="751" to-port="1" />
		<edge from-layer="751" from-port="2" to-layer="890" to-port="1" />
		<edge from-layer="752" from-port="0" to-layer="753" to-port="0" />
		<edge from-layer="753" from-port="1" to-layer="755" to-port="0" />
		<edge from-layer="754" from-port="0" to-layer="755" to-port="1" />
		<edge from-layer="755" from-port="2" to-layer="756" to-port="1" />
		<edge from-layer="756" from-port="2" to-layer="758" to-port="0" />
		<edge from-layer="757" from-port="0" to-layer="758" to-port="1" />
		<edge from-layer="758" from-port="2" to-layer="759" to-port="0" />
		<edge from-layer="759" from-port="1" to-layer="764" to-port="0" />
		<edge from-layer="760" from-port="0" to-layer="764" to-port="1" />
		<edge from-layer="761" from-port="0" to-layer="764" to-port="2" />
		<edge from-layer="762" from-port="0" to-layer="764" to-port="3" />
		<edge from-layer="763" from-port="0" to-layer="764" to-port="4" />
		<edge from-layer="764" from-port="5" to-layer="765" to-port="0" />
		<edge from-layer="765" from-port="2" to-layer="770" to-port="0" />
		<edge from-layer="766" from-port="0" to-layer="767" to-port="0" />
		<edge from-layer="767" from-port="1" to-layer="769" to-port="0" />
		<edge from-layer="768" from-port="0" to-layer="769" to-port="1" />
		<edge from-layer="769" from-port="2" to-layer="770" to-port="1" />
		<edge from-layer="770" from-port="2" to-layer="772" to-port="0" />
		<edge from-layer="771" from-port="0" to-layer="772" to-port="1" />
		<edge from-layer="772" from-port="2" to-layer="773" to-port="0" />
		<edge from-layer="773" from-port="1" to-layer="778" to-port="0" />
		<edge from-layer="774" from-port="0" to-layer="778" to-port="1" />
		<edge from-layer="775" from-port="0" to-layer="778" to-port="2" />
		<edge from-layer="776" from-port="0" to-layer="778" to-port="3" />
		<edge from-layer="777" from-port="0" to-layer="778" to-port="4" />
		<edge from-layer="778" from-port="5" to-layer="780" to-port="0" />
		<edge from-layer="779" from-port="0" to-layer="780" to-port="1" />
		<edge from-layer="780" from-port="4" to-layer="785" to-port="0" />
		<edge from-layer="780" from-port="4" to-layer="807" to-port="1" />
		<edge from-layer="780" from-port="3" to-layer="807" to-port="0" />
		<edge from-layer="781" from-port="0" to-layer="782" to-port="0" />
		<edge from-layer="782" from-port="1" to-layer="784" to-port="0" />
		<edge from-layer="783" from-port="0" to-layer="784" to-port="1" />
		<edge from-layer="784" from-port="2" to-layer="785" to-port="1" />
		<edge from-layer="785" from-port="2" to-layer="787" to-port="0" />
		<edge from-layer="786" from-port="0" to-layer="787" to-port="1" />
		<edge from-layer="787" from-port="2" to-layer="788" to-port="0" />
		<edge from-layer="788" from-port="1" to-layer="793" to-port="0" />
		<edge from-layer="789" from-port="0" to-layer="793" to-port="1" />
		<edge from-layer="790" from-port="0" to-layer="793" to-port="2" />
		<edge from-layer="791" from-port="0" to-layer="793" to-port="3" />
		<edge from-layer="792" from-port="0" to-layer="793" to-port="4" />
		<edge from-layer="793" from-port="5" to-layer="798" to-port="0" />
		<edge from-layer="794" from-port="0" to-layer="795" to-port="0" />
		<edge from-layer="795" from-port="1" to-layer="797" to-port="0" />
		<edge from-layer="796" from-port="0" to-layer="797" to-port="1" />
		<edge from-layer="797" from-port="2" to-layer="798" to-port="1" />
		<edge from-layer="798" from-port="2" to-layer="800" to-port="0" />
		<edge from-layer="799" from-port="0" to-layer="800" to-port="1" />
		<edge from-layer="800" from-port="2" to-layer="801" to-port="0" />
		<edge from-layer="801" from-port="1" to-layer="806" to-port="0" />
		<edge from-layer="802" from-port="0" to-layer="806" to-port="1" />
		<edge from-layer="803" from-port="0" to-layer="806" to-port="2" />
		<edge from-layer="804" from-port="0" to-layer="806" to-port="3" />
		<edge from-layer="805" from-port="0" to-layer="806" to-port="4" />
		<edge from-layer="806" from-port="5" to-layer="807" to-port="2" />
		<edge from-layer="807" from-port="3" to-layer="812" to-port="0" />
		<edge from-layer="808" from-port="0" to-layer="809" to-port="0" />
		<edge from-layer="809" from-port="1" to-layer="811" to-port="0" />
		<edge from-layer="810" from-port="0" to-layer="811" to-port="1" />
		<edge from-layer="811" from-port="2" to-layer="812" to-port="1" />
		<edge from-layer="812" from-port="2" to-layer="814" to-port="0" />
		<edge from-layer="813" from-port="0" to-layer="814" to-port="1" />
		<edge from-layer="814" from-port="2" to-layer="815" to-port="0" />
		<edge from-layer="815" from-port="1" to-layer="820" to-port="0" />
		<edge from-layer="816" from-port="0" to-layer="820" to-port="1" />
		<edge from-layer="817" from-port="0" to-layer="820" to-port="2" />
		<edge from-layer="818" from-port="0" to-layer="820" to-port="3" />
		<edge from-layer="819" from-port="0" to-layer="820" to-port="4" />
		<edge from-layer="820" from-port="5" to-layer="858" to-port="0" />
		<edge from-layer="820" from-port="5" to-layer="825" to-port="0" />
		<edge from-layer="821" from-port="0" to-layer="822" to-port="0" />
		<edge from-layer="822" from-port="1" to-layer="824" to-port="0" />
		<edge from-layer="823" from-port="0" to-layer="824" to-port="1" />
		<edge from-layer="824" from-port="2" to-layer="825" to-port="1" />
		<edge from-layer="825" from-port="2" to-layer="827" to-port="0" />
		<edge from-layer="826" from-port="0" to-layer="827" to-port="1" />
		<edge from-layer="827" from-port="2" to-layer="828" to-port="0" />
		<edge from-layer="828" from-port="1" to-layer="833" to-port="0" />
		<edge from-layer="829" from-port="0" to-layer="833" to-port="1" />
		<edge from-layer="830" from-port="0" to-layer="833" to-port="2" />
		<edge from-layer="831" from-port="0" to-layer="833" to-port="3" />
		<edge from-layer="832" from-port="0" to-layer="833" to-port="4" />
		<edge from-layer="833" from-port="5" to-layer="838" to-port="0" />
		<edge from-layer="834" from-port="0" to-layer="835" to-port="0" />
		<edge from-layer="835" from-port="1" to-layer="837" to-port="0" />
		<edge from-layer="836" from-port="0" to-layer="837" to-port="1" />
		<edge from-layer="837" from-port="2" to-layer="838" to-port="1" />
		<edge from-layer="838" from-port="2" to-layer="840" to-port="0" />
		<edge from-layer="839" from-port="0" to-layer="840" to-port="1" />
		<edge from-layer="840" from-port="2" to-layer="841" to-port="0" />
		<edge from-layer="841" from-port="1" to-layer="846" to-port="0" />
		<edge from-layer="842" from-port="0" to-layer="846" to-port="1" />
		<edge from-layer="843" from-port="0" to-layer="846" to-port="2" />
		<edge from-layer="844" from-port="0" to-layer="846" to-port="3" />
		<edge from-layer="845" from-port="0" to-layer="846" to-port="4" />
		<edge from-layer="846" from-port="5" to-layer="851" to-port="0" />
		<edge from-layer="847" from-port="0" to-layer="848" to-port="0" />
		<edge from-layer="848" from-port="1" to-layer="850" to-port="0" />
		<edge from-layer="849" from-port="0" to-layer="850" to-port="1" />
		<edge from-layer="850" from-port="2" to-layer="851" to-port="1" />
		<edge from-layer="851" from-port="2" to-layer="853" to-port="0" />
		<edge from-layer="852" from-port="0" to-layer="853" to-port="1" />
		<edge from-layer="853" from-port="2" to-layer="887" to-port="0" />
		<edge from-layer="854" from-port="0" to-layer="855" to-port="0" />
		<edge from-layer="855" from-port="1" to-layer="857" to-port="0" />
		<edge from-layer="856" from-port="0" to-layer="857" to-port="1" />
		<edge from-layer="857" from-port="2" to-layer="858" to-port="1" />
		<edge from-layer="858" from-port="2" to-layer="860" to-port="0" />
		<edge from-layer="859" from-port="0" to-layer="860" to-port="1" />
		<edge from-layer="860" from-port="2" to-layer="861" to-port="0" />
		<edge from-layer="861" from-port="1" to-layer="866" to-port="0" />
		<edge from-layer="862" from-port="0" to-layer="866" to-port="1" />
		<edge from-layer="863" from-port="0" to-layer="866" to-port="2" />
		<edge from-layer="864" from-port="0" to-layer="866" to-port="3" />
		<edge from-layer="865" from-port="0" to-layer="866" to-port="4" />
		<edge from-layer="866" from-port="5" to-layer="871" to-port="0" />
		<edge from-layer="867" from-port="0" to-layer="868" to-port="0" />
		<edge from-layer="868" from-port="1" to-layer="870" to-port="0" />
		<edge from-layer="869" from-port="0" to-layer="870" to-port="1" />
		<edge from-layer="870" from-port="2" to-layer="871" to-port="1" />
		<edge from-layer="871" from-port="2" to-layer="873" to-port="0" />
		<edge from-layer="872" from-port="0" to-layer="873" to-port="1" />
		<edge from-layer="873" from-port="2" to-layer="874" to-port="0" />
		<edge from-layer="874" from-port="1" to-layer="879" to-port="0" />
		<edge from-layer="875" from-port="0" to-layer="879" to-port="1" />
		<edge from-layer="876" from-port="0" to-layer="879" to-port="2" />
		<edge from-layer="877" from-port="0" to-layer="879" to-port="3" />
		<edge from-layer="878" from-port="0" to-layer="879" to-port="4" />
		<edge from-layer="879" from-port="5" to-layer="884" to-port="0" />
		<edge from-layer="880" from-port="0" to-layer="881" to-port="0" />
		<edge from-layer="881" from-port="1" to-layer="883" to-port="0" />
		<edge from-layer="882" from-port="0" to-layer="883" to-port="1" />
		<edge from-layer="883" from-port="2" to-layer="884" to-port="1" />
		<edge from-layer="884" from-port="2" to-layer="886" to-port="0" />
		<edge from-layer="885" from-port="0" to-layer="886" to-port="1" />
		<edge from-layer="886" from-port="2" to-layer="887" to-port="1" />
		<edge from-layer="887" from-port="2" to-layer="889" to-port="0" />
		<edge from-layer="888" from-port="0" to-layer="889" to-port="1" />
		<edge from-layer="889" from-port="2" to-layer="890" to-port="2" />
		<edge from-layer="890" from-port="3" to-layer="893" to-port="0" />
		<edge from-layer="891" from-port="0" to-layer="893" to-port="1" />
		<edge from-layer="892" from-port="0" to-layer="893" to-port="2" />
		<edge from-layer="893" from-port="3" to-layer="895" to-port="0" />
		<edge from-layer="893" from-port="4" to-layer="976" to-port="0" />
		<edge from-layer="894" from-port="0" to-layer="895" to-port="1" />
		<edge from-layer="895" from-port="2" to-layer="897" to-port="0" />
		<edge from-layer="896" from-port="0" to-layer="897" to-port="1" />
		<edge from-layer="897" from-port="2" to-layer="898" to-port="0" />
		<edge from-layer="898" from-port="1" to-layer="903" to-port="0" />
		<edge from-layer="899" from-port="0" to-layer="903" to-port="1" />
		<edge from-layer="900" from-port="0" to-layer="903" to-port="2" />
		<edge from-layer="901" from-port="0" to-layer="903" to-port="3" />
		<edge from-layer="902" from-port="0" to-layer="903" to-port="4" />
		<edge from-layer="903" from-port="5" to-layer="908" to-port="0" />
		<edge from-layer="904" from-port="0" to-layer="905" to-port="0" />
		<edge from-layer="905" from-port="1" to-layer="907" to-port="0" />
		<edge from-layer="906" from-port="0" to-layer="907" to-port="1" />
		<edge from-layer="907" from-port="2" to-layer="908" to-port="1" />
		<edge from-layer="908" from-port="2" to-layer="913" to-port="0" />
		<edge from-layer="909" from-port="0" to-layer="913" to-port="1" />
		<edge from-layer="910" from-port="0" to-layer="913" to-port="2" />
		<edge from-layer="911" from-port="0" to-layer="913" to-port="3" />
		<edge from-layer="912" from-port="0" to-layer="913" to-port="4" />
		<edge from-layer="913" from-port="5" to-layer="915" to-port="0" />
		<edge from-layer="914" from-port="0" to-layer="915" to-port="1" />
		<edge from-layer="915" from-port="2" to-layer="919" to-port="0" />
		<edge from-layer="915" from-port="2" to-layer="930" to-port="0" />
		<edge from-layer="915" from-port="2" to-layer="947" to-port="0" />
		<edge from-layer="916" from-port="0" to-layer="930" to-port="1" />
		<edge from-layer="917" from-port="0" to-layer="928" to-port="0" />
		<edge from-layer="918" from-port="0" to-layer="928" to-port="1" />
		<edge from-layer="919" from-port="1" to-layer="922" to-port="0" />
		<edge from-layer="920" from-port="0" to-layer="922" to-port="1" />
		<edge from-layer="921" from-port="0" to-layer="922" to-port="2" />
		<edge from-layer="922" from-port="3" to-layer="924" to-port="0" />
		<edge from-layer="923" from-port="0" to-layer="924" to-port="1" />
		<edge from-layer="924" from-port="2" to-layer="926" to-port="0" />
		<edge from-layer="925" from-port="0" to-layer="926" to-port="1" />
		<edge from-layer="926" from-port="2" to-layer="928" to-port="2" />
		<edge from-layer="926" from-port="2" to-layer="944" to-port="0" />
		<edge from-layer="926" from-port="2" to-layer="941" to-port="2" />
		<edge from-layer="927" from-port="0" to-layer="928" to-port="3" />
		<edge from-layer="928" from-port="4" to-layer="930" to-port="2" />
		<edge from-layer="929" from-port="0" to-layer="930" to-port="3" />
		<edge from-layer="930" from-port="4" to-layer="931" to-port="1" />
		<edge from-layer="931" from-port="2" to-layer="936" to-port="0" />
		<edge from-layer="932" from-port="0" to-layer="936" to-port="1" />
		<edge from-layer="933" from-port="0" to-layer="936" to-port="2" />
		<edge from-layer="934" from-port="0" to-layer="936" to-port="3" />
		<edge from-layer="935" from-port="0" to-layer="936" to-port="4" />
		<edge from-layer="936" from-port="5" to-layer="954" to-port="0" />
		<edge from-layer="936" from-port="5" to-layer="967" to-port="1" />
		<edge from-layer="937" from-port="0" to-layer="948" to-port="0" />
		<edge from-layer="938" from-port="0" to-layer="941" to-port="0" />
		<edge from-layer="939" from-port="0" to-layer="945" to-port="1" />
		<edge from-layer="939" from-port="0" to-layer="941" to-port="1" />
		<edge from-layer="940" from-port="0" to-layer="945" to-port="3" />
		<edge from-layer="940" from-port="0" to-layer="941" to-port="3" />
		<edge from-layer="941" from-port="4" to-layer="947" to-port="1" />
		<edge from-layer="942" from-port="0" to-layer="945" to-port="0" />
		<edge from-layer="943" from-port="0" to-layer="944" to-port="1" />
		<edge from-layer="944" from-port="2" to-layer="945" to-port="2" />
		<edge from-layer="945" from-port="4" to-layer="947" to-port="2" />
		<edge from-layer="946" from-port="0" to-layer="947" to-port="3" />
		<edge from-layer="947" from-port="4" to-layer="948" to-port="1" />
		<edge from-layer="948" from-port="2" to-layer="953" to-port="0" />
		<edge from-layer="949" from-port="0" to-layer="953" to-port="1" />
		<edge from-layer="950" from-port="0" to-layer="953" to-port="2" />
		<edge from-layer="951" from-port="0" to-layer="953" to-port="3" />
		<edge from-layer="952" from-port="0" to-layer="953" to-port="4" />
		<edge from-layer="953" from-port="5" to-layer="954" to-port="1" />
		<edge from-layer="953" from-port="5" to-layer="967" to-port="0" />
		<edge from-layer="954" from-port="2" to-layer="959" to-port="0" />
		<edge from-layer="955" from-port="0" to-layer="959" to-port="1" />
		<edge from-layer="956" from-port="0" to-layer="959" to-port="2" />
		<edge from-layer="957" from-port="0" to-layer="959" to-port="3" />
		<edge from-layer="958" from-port="0" to-layer="959" to-port="4" />
		<edge from-layer="959" from-port="5" to-layer="961" to-port="0" />
		<edge from-layer="960" from-port="0" to-layer="961" to-port="1" />
		<edge from-layer="961" from-port="2" to-layer="966" to-port="0" />
		<edge from-layer="962" from-port="0" to-layer="966" to-port="1" />
		<edge from-layer="963" from-port="0" to-layer="966" to-port="2" />
		<edge from-layer="964" from-port="0" to-layer="966" to-port="3" />
		<edge from-layer="965" from-port="0" to-layer="966" to-port="4" />
		<edge from-layer="966" from-port="5" to-layer="973" to-port="0" />
		<edge from-layer="967" from-port="2" to-layer="972" to-port="0" />
		<edge from-layer="968" from-port="0" to-layer="972" to-port="1" />
		<edge from-layer="969" from-port="0" to-layer="972" to-port="2" />
		<edge from-layer="970" from-port="0" to-layer="972" to-port="3" />
		<edge from-layer="971" from-port="0" to-layer="972" to-port="4" />
		<edge from-layer="972" from-port="5" to-layer="973" to-port="1" />
		<edge from-layer="973" from-port="2" to-layer="975" to-port="0" />
		<edge from-layer="974" from-port="0" to-layer="975" to-port="1" />
		<edge from-layer="975" from-port="2" to-layer="977" to-port="0" />
		<edge from-layer="976" from-port="1" to-layer="977" to-port="1" />
		<edge from-layer="977" from-port="2" to-layer="978" to-port="0" />
	</edges>
	<rt_info>
		<MO_version value="2023.0.1-11005-fa1c41994f3-releases/2023/0" />
		<Runtime_version value="2023.0.1-11005-fa1c41994f3-releases/2023/0" />
		<conversion_parameters>
			<framework value="onnx" />
			<input_model value="DIR/best.onnx" />
			<is_python_api_used value="True" />
			<model_name value="YOLOv8n" />
		</conversion_parameters>
		<framework>
			<author value="Ultralytics" />
			<batch value="1" />
			<date value="2023-08-26T16:20:13.177425" />
			<description value="Ultralytics YOLOv8n model trained on buff.yaml" />
			<imgsz value="[640, 640]" />
			<license value="AGPL-3.0 https://ultralytics.com/license" />
			<names value="{0: 'Blue_r', 1: 'Blue_target', 2: 'Activated', 3: 'Red_r', 4: 'Red_target'}" />
			<stride value="32" />
			<task value="detect" />
			<version value="8.0.163" />
		</framework>
		<legacy_frontend value="False" />
		<model_info>
			<iou_threshold value="0.7" />
			<labels value="Blue_r Blue_target Activated Red_r Red_target" />
			<model_type value="YOLOv8" />
			<pad_value value="114" />
			<resize_type value="fit_to_window_letterbox" />
			<reverse_input_channels value="YES" />
			<scale_values value="255" />
		</model_info>
		<nncf>
			<quantization>
				<advanced_parameters value="{}" />
				<fast_bias_correction value="True" />
				<ignored_scope value="None" />
				<model_type value="None" />
				<preset value="mixed" />
				<subset_size value="300" />
				<target_device value="ANY" />
			</quantization>
		</nncf>
	</rt_info>
</net>
